…
 'global_test_all_zero': False,
 'gpus': 1,
 'hidden_dims': (64, 32),
 'lamda': 0.8,
 'log_dir': 'runs\\global-10-fold\\Cdataset\\WBNCF\\2023-09-11_06-49-09',
 'loss_fn': 'focal',
 'lr': 0.0005,
 'model': 'NNCFDR',
 'n_disease': 409,
 'n_drug': 663,
 'n_splits': 10,
 'neighbor_embedding_dim': 32,
 'pos_weight': 106.09597156398104,
 'profiler': False,
 'seed': 666,
 'separate': False,
 'size_u': 663,
 'size_v': 409,
 'split_mode': 'global',
 'time_stamp': '2023-09-11_06-49-09',
 'train_fill_unknown': True}
[09/11 06:49:11][INFO] WBNCF:  157: WBNCF(
  (drug_neighbor_encoder): NeighborEmbedding(
    (shutcut): Linear(in_features=663, out_features=32, bias=True)
    (bgnn): BGCNA(663, 32)
    (dropout): Dropout(p=0.4, inplace=False)
  )
  (disease_neighbor_encoder): NeighborEmbedding(
    (shutcut): Linear(in_features=409, out_features=32, bias=True)
    (bgnn): BGCNA(409, 32)
    (dropout): Dropout(p=0.4, inplace=False)
  )
  (interaction_encoder): InteractionEmbedding(
    (drug_project): Linear(in_features=663, out_features=64, bias=False)
    (disease_project): Linear(in_features=409, out_features=64, bias=False)
    (dropout): Dropout(p=0.4, inplace=False)
  )
  (decoder): InteractionDecoder(
    (decoder): Sequential(
      (0): Linear(in_features=128, out_features=64, bias=True)
      (1): ReLU(inplace=True)
      (2): Dropout(p=0.4, inplace=False)
      (3): Linear(in_features=64, out_features=32, bias=True)
      (4): ReLU(inplace=True)
      (5): Dropout(p=0.4, inplace=False)
      (6): Linear(in_features=32, out_features=1, bias=True)
      (7): Sigmoid()
    )
  )
)
[09/11 06:49:11][INFO] WBNCF:  158: begin train fold 0/10
[09/11 06:51:04][INFO] WBNCF:  160: end train fold 0/10
[09/11 06:51:05][INFO] WBNCF:   77: eval time cost: 0.8528099060058594
[09/11 06:51:05][INFO] WBNCF:   85: WBNCF(
  (drug_neighbor_encoder): NeighborEmbedding(
    (shutcut): Linear(in_features=663, out_features=32, bias=True)
    (bgnn): BGCNA(663, 32)
    (dropout): Dropout(p=0.4, inplace=False)
  )
  (disease_neighbor_encoder): NeighborEmbedding(
    (shutcut): Linear(in_features=409, out_features=32, bias=True)
    (bgnn): BGCNA(409, 32)
    (dropout): Dropout(p=0.4, inplace=False)
  )
  (interaction_encoder): InteractionEmbedding(
    (drug_project): Linear(in_features=663, out_features=64, bias=False)
    (disease_project): Linear(in_features=409, out_features=64, bias=False)
    (dropout): Dropout(p=0.4, inplace=False)
  )
  (decoder): InteractionDecoder(
    (decoder): Sequential(
      (0): Linear(in_features=128, out_features=64, bias=True)
      (1): ReLU(inplace=True)
      (2): Dropout(p=0.4, inplace=False)
      (3): Linear(in_features=64, out_features=32, bias=True)
      (4): ReLU(inplace=True)
      (5): Dropout(p=0.4, inplace=False)
      (6): Linear(in_features=32, out_features=1, bias=True)
      (7): Sigmoid()
    )
  )
)
[09/11 06:51:05][INFO] WBNCF:   86: save time cost: 0.003000497817993164
[09/11 06:51:05][INFO] WBNCF:  170: 0/10 folds: {'aupr': 0.3763120781379798, 'auroc': 0.9141817577485662, 'lagcn_aupr': 0.37979170647469995, 'lagcn_auc': 0.9141623438075323, 'lagcn_f1_score': 0.437751, 'lagcn_accuracy': 0.98967475, 'lagcn_recall': 0.42913386, 'lagcn_specificity': 0.9949747, 'lagcn_precision': 0.44672132}
…
