…
 'global_test_all_zero': False,
 'gpus': 1,
 'hidden_dims': (64, 32),
 'lamda': 0.8,
 'log_dir': 'runs\\global-10-fold\\Fdataset\\WBNCF\\2023-09-15_22-36-11',
 'loss_fn': 'focal',
 'lr': 0.0005,
 'model': 'NNCFDR',
 'n_disease': 313,
 'n_drug': 593,
 'n_splits': 10,
 'neighbor_embedding_dim': 32,
 'pos_weight': 95.02121055354371,
 'profiler': False,
 'seed': 666,
 'separate': False,
 'size_u': 593,
 'size_v': 313,
 'split_mode': 'global',
 'time_stamp': '2023-09-15_22-36-11',
 'train_fill_unknown': True}
[09/15 22:36:12][INFO] WBNCF:  157: WBNCF(
  (drug_neighbor_encoder): NeighborEmbedding(
    (shutcut): Linear(in_features=593, out_features=32, bias=True)
    (bgnn): BGCNA(593, 32)
    (dropout): Dropout(p=0.4, inplace=False)
  )
  (disease_neighbor_encoder): NeighborEmbedding(
    (shutcut): Linear(in_features=313, out_features=32, bias=True)
    (bgnn): BGCNA(313, 32)
    (dropout): Dropout(p=0.4, inplace=False)
  )
  (interaction_encoder): InteractionEmbedding(
    (drug_project): Linear(in_features=593, out_features=64, bias=False)
    (disease_project): Linear(in_features=313, out_features=64, bias=False)
    (dropout): Dropout(p=0.4, inplace=False)
  )
  (decoder): InteractionDecoder(
    (decoder): Sequential(
      (0): Linear(in_features=128, out_features=64, bias=True)
      (1): ReLU(inplace=True)
      (2): Dropout(p=0.4, inplace=False)
      (3): Linear(in_features=64, out_features=32, bias=True)
      (4): ReLU(inplace=True)
      (5): Dropout(p=0.4, inplace=False)
      (6): Linear(in_features=32, out_features=1, bias=True)
      (7): Sigmoid()
    )
  )
)
[09/15 22:36:12][INFO] WBNCF:  158: begin train fold 0/10
[09/15 22:37:44][INFO] WBNCF:  160: end train fold 0/10
[09/15 22:37:44][INFO] WBNCF:   77: eval time cost: 0.8461081981658936
[09/15 22:37:44][INFO] WBNCF:   85: WBNCF(
  (drug_neighbor_encoder): NeighborEmbedding(
    (shutcut): Linear(in_features=593, out_features=32, bias=True)
    (bgnn): BGCNA(593, 32)
    (dropout): Dropout(p=0.4, inplace=False)
  )
  (disease_neighbor_encoder): NeighborEmbedding(
    (shutcut): Linear(in_features=313, out_features=32, bias=True)
    (bgnn): BGCNA(313, 32)
    (dropout): Dropout(p=0.4, inplace=False)
  )
  (interaction_encoder): InteractionEmbedding(
    (drug_project): Linear(in_features=593, out_features=64, bias=False)
    (disease_project): Linear(in_features=313, out_features=64, bias=False)
    (dropout): Dropout(p=0.4, inplace=False)
  )
  (decoder): InteractionDecoder(
    (decoder): Sequential(
      (0): Linear(in_features=128, out_features=64, bias=True)
      (1): ReLU(inplace=True)
      (2): Dropout(p=0.4, inplace=False)
      (3): Linear(in_features=64, out_features=32, bias=True)
      (4): ReLU(inplace=True)
      (5): Dropout(p=0.4, inplace=False)
      (6): Linear(in_features=32, out_features=1, bias=True)
      (7): Sigmoid()
    )
  )
)
[09/15 22:37:44][INFO] WBNCF:   86: save time cost: 0.0019953250885009766
[09/15 22:37:44][INFO] WBNCF:  170: 0/10 folds: {'aupr': 0.29696083929072503, 'auroc': 0.8981908249218723, 'lagcn_aupr': 0.3042509746352928, 'lagcn_auc': 0.8981480354280795, 'lagcn_f1_score': 0.3767313, 'lagcn_accuracy': 0.98787844, 'lagcn_recall': 0.35051546, 'lagcn_specificity': 0.9946102, 'lagcn_precision': 0.4071856}
[09/15 22:37:44][INFO] WBNCF:  171: 0/10 folds time cost: 93.28604412078857
[09/15 22:37:45][INFO] WBNCF:  158: begin train fold 1/10
[09/15 22:39:15][INFO] WBNCF:  160: end train fold 1/10
[09/15 22:39:16][INFO] WBNCF:   77: eval time cost: 0.8072097301483154
[09/15 22:39:16][INFO] WBNCF:   85: WBNCF(
  (drug_neighbor_encoder): NeighborEmbedding(
    (shutcut): Linear(in_features=593, out_features=32, bias=True)
    (bgnn): BGCNA(593, 32)
    (dropout): Dropout(p=0.4, inplace=False)
  )
  (disease_neighbor_encoder): NeighborEmbedding(
    (shutcut): Linear(in_features=313, out_features=32, bias=True)
    (bgnn): BGCNA(313, 32)
    (dropout): Dropout(p=0.4, inplace=False)
  )
  (interaction_encoder): InteractionEmbedding(
    (drug_project): Linear(in_features=593, out_features=64, bias=False)
    (disease_project): Linear(in_features=313, out_features=64, bias=False)
    (dropout): Dropout(p=0.4, inplace=False)
  )
  (decoder): InteractionDecoder(
    (decoder): Sequential(
      (0): Linear(in_features=128, out_features=64, bias=True)
      (1): ReLU(inplace=True)
      (2): Dropout(p=0.4, inplace=False)
      (3): Linear(in_features=64, out_features=32, bias=True)
      (4): ReLU(inplace=True)
      (5): Dropout(p=0.4, inplace=False)
      (6): Linear(in_features=32, out_features=1, bias=True)
      (7): Sigmoid()
    )
  )
)
[09/15 22:39:16][INFO] WBNCF:   86: save time cost: 0.00146484375
[09/15 22:39:16][INFO] WBNCF:  170: 1/10 folds: {'aupr': 0.3882819386284503, 'auroc': 0.9043038206293328, 'lagcn_aupr': 0.3856670359697284, 'lagcn_auc': 0.9042636972078568, 'lagcn_f1_score': 0.45083934, 'lagcn_accuracy': 0.987663, 'lagcn_recall': 0.48453608, 'lagcn_specificity': 0.9929769, 'lagcn_precision': 0.42152467}
[09/15 22:39:16][INFO] WBNCF:  171: 1/10 folds time cost: 91.33684921264648
[09/15 22:39:16][INFO] WBNCF:  158: begin train fold 2/10
[09/15 22:40:47][INFO] WBNCF:  160: end train fold 2/10
[09/15 22:40:48][INFO] WBNCF:   77: eval time cost: 0.7981574535369873
[09/15 22:40:48][INFO] WBNCF:   85: WBNCF(
  (drug_neighbor_encoder): NeighborEmbedding(
    (shutcut): Linear(in_features=593, out_features=32, bias=True)
    (bgnn): BGCNA(593, 32)
    (dropout): Dropout(p=0.4, inplace=False)
  )
  (disease_neighbor_encoder): NeighborEmbedding(
    (shutcut): Linear(in_features=313, out_features=32, bias=True)
    (bgnn): BGCNA(313, 32)
    (dropout): Dropout(p=0.4, inplace=False)
  )
  (interaction_encoder): InteractionEmbedding(
    (drug_project): Linear(in_features=593, out_features=64, bias=False)
    (disease_project): Linear(in_features=313, out_features=64, bias=False)
    (dropout): Dropout(p=0.4, inplace=False)
  )
  (decoder): InteractionDecoder(
    (decoder): Sequential(
      (0): Linear(in_features=128, out_features=64, bias=True)
      (1): ReLU(inplace=True)
      (2): Dropout(p=0.4, inplace=False)
      (3): Linear(in_features=64, out_features=32, bias=True)
      (4): ReLU(inplace=True)
      (5): Dropout(p=0.4, inplace=False)
      (6): Linear(in_features=32, out_features=1, bias=True)
      (7): Sigmoid()
    )
  )
)
[09/15 22:40:48][INFO] WBNCF:   86: save time cost: 0.0017652511596679688
[09/15 22:40:48][INFO] WBNCF:  170: 2/10 folds: {'aupr': 0.3364504315764361, 'auroc': 0.9143408864362945, 'lagcn_aupr': 0.3462325458329998, 'lagcn_auc': 0.9143171841404858, 'lagcn_f1_score': 0.40201005, 'lagcn_accuracy': 0.9871781, 'lagcn_recall': 0.41237113, 'lagcn_specificity': 0.9932491, 'lagcn_precision': 0.39215687}
[09/15 22:40:48][INFO] WBNCF:  171: 2/10 folds time cost: 91.9781219959259
[09/15 22:40:48][INFO] WBNCF:  158: begin train fold 3/10
[09/15 22:42:20][INFO] WBNCF:  160: end train fold 3/10
[09/15 22:42:21][INFO] WBNCF:   77: eval time cost: 0.8468022346496582
[09/15 22:42:21][INFO] WBNCF:   85: WBNCF(
  (drug_neighbor_encoder): NeighborEmbedding(
    (shutcut): Linear(in_features=593, out_features=32, bias=True)
    (bgnn): BGCNA(593, 32)
    (dropout): Dropout(p=0.4, inplace=False)
  )
  (disease_neighbor_encoder): NeighborEmbedding(
    (shutcut): Linear(in_features=313, out_features=32, bias=True)
    (bgnn): BGCNA(313, 32)
    (dropout): Dropout(p=0.4, inplace=False)
  )
  (interaction_encoder): InteractionEmbedding(
    (drug_project): Linear(in_features=593, out_features=64, bias=False)
    (disease_project): Linear(in_features=313, out_features=64, bias=False)
    (dropout): Dropout(p=0.4, inplace=False)
  )
  (decoder): InteractionDecoder(
    (decoder): Sequential(
      (0): Linear(in_features=128, out_features=64, bias=True)
      (1): ReLU(inplace=True)
      (2): Dropout(p=0.4, inplace=False)
      (3): Linear(in_features=64, out_features=32, bias=True)
      (4): ReLU(inplace=True)
      (5): Dropout(p=0.4, inplace=False)
      (6): Linear(in_features=32, out_features=1, bias=True)
      (7): Sigmoid()
    )
  )
)
[09/15 22:42:21][INFO] WBNCF:   86: save time cost: 0.0018436908721923828
[09/15 22:42:21][INFO] WBNCF:  170: 3/10 folds: {'aupr': 0.31945279034735014, 'auroc': 0.9072193869491434, 'lagcn_aupr': 0.3363593318708331, 'lagcn_auc': 0.9071982323361422, 'lagcn_f1_score': 0.37327188, 'lagcn_accuracy': 0.9853456, 'lagcn_recall': 0.41968912, 'lagcn_specificity': 0.9912892, 'lagcn_precision': 0.3360996}
[09/15 22:42:21][INFO] WBNCF:  171: 3/10 folds time cost: 93.03424715995789
[09/15 22:42:21][INFO] WBNCF:  158: begin train fold 4/10
[09/15 22:43:58][INFO] WBNCF:  160: end train fold 4/10
[09/15 22:43:59][INFO] WBNCF:   77: eval time cost: 0.7977595329284668
[09/15 22:43:59][INFO] WBNCF:   85: WBNCF(
  (drug_neighbor_encoder): NeighborEmbedding(
    (shutcut): Linear(in_features=593, out_features=32, bias=True)
    (bgnn): BGCNA(593, 32)
    (dropout): Dropout(p=0.4, inplace=False)
  )
  (disease_neighbor_encoder): NeighborEmbedding(
    (shutcut): Linear(in_features=313, out_features=32, bias=True)
    (bgnn): BGCNA(313, 32)
    (dropout): Dropout(p=0.4, inplace=False)
  )
  (interaction_encoder): InteractionEmbedding(
    (drug_project): Linear(in_features=593, out_features=64, bias=False)
    (disease_project): Linear(in_features=313, out_features=64, bias=False)
    (dropout): Dropout(p=0.4, inplace=False)
  )
  (decoder): InteractionDecoder(
    (decoder): Sequential(
      (0): Linear(in_features=128, out_features=64, bias=True)
      (1): ReLU(inplace=True)
      (2): Dropout(p=0.4, inplace=False)
      (3): Linear(in_features=64, out_features=32, bias=True)
      (4): ReLU(inplace=True)
      (5): Dropout(p=0.4, inplace=False)
      (6): Linear(in_features=32, out_features=1, bias=True)
      (7): Sigmoid()
    )
  )
)
[09/15 22:43:59][INFO] WBNCF:   86: save time cost: 0.001964569091796875
[09/15 22:43:59][INFO] WBNCF:  170: 4/10 folds: {'aupr': 0.31259946092570257, 'auroc': 0.8891623864887798, 'lagcn_aupr': 0.3207500353164553, 'lagcn_auc': 0.8891695791259959, 'lagcn_f1_score': 0.39009288, 'lagcn_accuracy': 0.9893863, 'lagcn_recall': 0.32642487, 'lagcn_specificity': 0.9963524, 'lagcn_precision': 0.4846154}
[09/15 22:43:59][INFO] WBNCF:  171: 4/10 folds time cost: 98.18895816802979
[09/15 22:43:59][INFO] WBNCF:  158: begin train fold 5/10
[09/15 22:45:34][INFO] WBNCF:  160: end train fold 5/10
[09/15 22:45:34][INFO] WBNCF:   77: eval time cost: 0.9021561145782471
[09/15 22:45:34][INFO] WBNCF:   85: WBNCF(
  (drug_neighbor_encoder): NeighborEmbedding(
    (shutcut): Linear(in_features=593, out_features=32, bias=True)
    (bgnn): BGCNA(593, 32)
    (dropout): Dropout(p=0.4, inplace=False)
  )
  (disease_neighbor_encoder): NeighborEmbedding(
    (shutcut): Linear(in_features=313, out_features=32, bias=True)
    (bgnn): BGCNA(313, 32)
    (dropout): Dropout(p=0.4, inplace=False)
  )
  (interaction_encoder): InteractionEmbedding(
    (drug_project): Linear(in_features=593, out_features=64, bias=False)
    (disease_project): Linear(in_features=313, out_features=64, bias=False)
    (dropout): Dropout(p=0.4, inplace=False)
  )
  (decoder): InteractionDecoder(
    (decoder): Sequential(
      (0): Linear(in_features=128, out_features=64, bias=True)
      (1): ReLU(inplace=True)
      (2): Dropout(p=0.4, inplace=False)
      (3): Linear(in_features=64, out_features=32, bias=True)
      (4): ReLU(inplace=True)
      (5): Dropout(p=0.4, inplace=False)
      (6): Linear(in_features=32, out_features=1, bias=True)
      (7): Sigmoid()
    )
  )
)
[09/15 22:45:34][INFO] WBNCF:   86: save time cost: 0.0019969940185546875
[09/15 22:45:34][INFO] WBNCF:  170: 5/10 folds: {'aupr': 0.277864868505787, 'auroc': 0.8911649117185101, 'lagcn_aupr': 0.2777004956807312, 'lagcn_auc': 0.8911612410501695, 'lagcn_f1_score': 0.33888888, 'lagcn_accuracy': 0.98717743, 'lagcn_recall': 0.31606218, 'lagcn_specificity': 0.9942291, 'lagcn_precision': 0.36526945}
[09/15 22:45:34][INFO] WBNCF:  171: 5/10 folds time cost: 95.49240612983704
[09/15 22:45:35][INFO] WBNCF:  158: begin train fold 6/10
[09/15 22:47:08][INFO] WBNCF:  160: end train fold 6/10
[09/15 22:47:09][INFO] WBNCF:   77: eval time cost: 0.9107565879821777
[09/15 22:47:09][INFO] WBNCF:   85: WBNCF(
  (drug_neighbor_encoder): NeighborEmbedding(
    (shutcut): Linear(in_features=593, out_features=32, bias=True)
    (bgnn): BGCNA(593, 32)
    (dropout): Dropout(p=0.4, inplace=False)
  )
  (disease_neighbor_encoder): NeighborEmbedding(
    (shutcut): Linear(in_features=313, out_features=32, bias=True)
    (bgnn): BGCNA(313, 32)
    (dropout): Dropout(p=0.4, inplace=False)
  )
  (interaction_encoder): InteractionEmbedding(
    (drug_project): Linear(in_features=593, out_features=64, bias=False)
    (disease_project): Linear(in_features=313, out_features=64, bias=False)
    (dropout): Dropout(p=0.4, inplace=False)
  )
  (decoder): InteractionDecoder(
    (decoder): Sequential(
      (0): Linear(in_features=128, out_features=64, bias=True)
      (1): ReLU(inplace=True)
      (2): Dropout(p=0.4, inplace=False)
      (3): Linear(in_features=64, out_features=32, bias=True)
      (4): ReLU(inplace=True)
      (5): Dropout(p=0.4, inplace=False)
      (6): Linear(in_features=32, out_features=1, bias=True)
      (7): Sigmoid()
    )
  )
)
[09/15 22:47:09][INFO] WBNCF:   86: save time cost: 0.0019969940185546875
[09/15 22:47:09][INFO] WBNCF:  170: 6/10 folds: {'aupr': 0.2989360142790089, 'auroc': 0.8776582014770237, 'lagcn_aupr': 0.2989786725438457, 'lagcn_auc': 0.8775995281639342, 'lagcn_f1_score': 0.375, 'lagcn_accuracy': 0.98599136, 'lagcn_recall': 0.4041451, 'lagcn_specificity': 0.9921054, 'lagcn_precision': 0.3497758}
[09/15 22:47:09][INFO] WBNCF:  171: 6/10 folds time cost: 94.17143940925598
[09/15 22:47:09][INFO] WBNCF:  158: begin train fold 7/10
[09/15 22:48:42][INFO] WBNCF:  160: end train fold 7/10
[09/15 22:48:43][INFO] WBNCF:   77: eval time cost: 0.9252710342407227
[09/15 22:48:43][INFO] WBNCF:   85: WBNCF(
  (drug_neighbor_encoder): NeighborEmbedding(
    (shutcut): Linear(in_features=593, out_features=32, bias=True)
    (bgnn): BGCNA(593, 32)
    (dropout): Dropout(p=0.4, inplace=False)
  )
  (disease_neighbor_encoder): NeighborEmbedding(
    (shutcut): Linear(in_features=313, out_features=32, bias=True)
    (bgnn): BGCNA(313, 32)
    (dropout): Dropout(p=0.4, inplace=False)
  )
  (interaction_encoder): InteractionEmbedding(
    (drug_project): Linear(in_features=593, out_features=64, bias=False)
    (disease_project): Linear(in_features=313, out_features=64, bias=False)
    (dropout): Dropout(p=0.4, inplace=False)
  )
  (decoder): InteractionDecoder(
    (decoder): Sequential(
      (0): Linear(in_features=128, out_features=64, bias=True)
      (1): ReLU(inplace=True)
      (2): Dropout(p=0.4, inplace=False)
      (3): Linear(in_features=64, out_features=32, bias=True)
      (4): ReLU(inplace=True)
      (5): Dropout(p=0.4, inplace=False)
      (6): Linear(in_features=32, out_features=1, bias=True)
      (7): Sigmoid()
    )
  )
)
[09/15 22:48:43][INFO] WBNCF:   86: save time cost: 0.0025124549865722656
[09/15 22:48:43][INFO] WBNCF:  170: 7/10 folds: {'aupr': 0.32765564369544187, 'auroc': 0.9010770894296513, 'lagcn_aupr': 0.34564312802564173, 'lagcn_auc': 0.901066506149772, 'lagcn_f1_score': 0.41501105, 'lagcn_accuracy': 0.985722, 'lagcn_recall': 0.48704663, 'lagcn_specificity': 0.990962, 'lagcn_precision': 0.36153847}
[09/15 22:48:43][INFO] WBNCF:  171: 7/10 folds time cost: 94.07572627067566
[09/15 22:48:43][INFO] WBNCF:  158: begin train fold 8/10
[09/15 22:50:13][INFO] WBNCF:  160: end train fold 8/10
[09/15 22:50:14][INFO] WBNCF:   77: eval time cost: 0.7815141677856445
[09/15 22:50:14][INFO] WBNCF:   85: WBNCF(
  (drug_neighbor_encoder): NeighborEmbedding(
    (shutcut): Linear(in_features=593, out_features=32, bias=True)
    (bgnn): BGCNA(593, 32)
    (dropout): Dropout(p=0.4, inplace=False)
  )
  (disease_neighbor_encoder): NeighborEmbedding(
    (shutcut): Linear(in_features=313, out_features=32, bias=True)
    (bgnn): BGCNA(313, 32)
    (dropout): Dropout(p=0.4, inplace=False)
  )
  (interaction_encoder): InteractionEmbedding(
    (drug_project): Linear(in_features=593, out_features=64, bias=False)
    (disease_project): Linear(in_features=313, out_features=64, bias=False)
    (dropout): Dropout(p=0.4, inplace=False)
  )
  (decoder): InteractionDecoder(
    (decoder): Sequential(
      (0): Linear(in_features=128, out_features=64, bias=True)
      (1): ReLU(inplace=True)
      (2): Dropout(p=0.4, inplace=False)
      (3): Linear(in_features=64, out_features=32, bias=True)
      (4): ReLU(inplace=True)
      (5): Dropout(p=0.4, inplace=False)
      (6): Linear(in_features=32, out_features=1, bias=True)
      (7): Sigmoid()
    )
  )
)
[09/15 22:50:14][INFO] WBNCF:   86: save time cost: 0.002044677734375
[09/15 22:50:14][INFO] WBNCF:  170: 8/10 folds: {'aupr': 0.35645577149431645, 'auroc': 0.8926938971138539, 'lagcn_aupr': 0.36887204302427934, 'lagcn_auc': 0.8926747137822508, 'lagcn_f1_score': 0.4148607, 'lagcn_accuracy': 0.9898168, 'lagcn_recall': 0.34715027, 'lagcn_specificity': 0.99656993, 'lagcn_precision': 0.5153846}
[09/15 22:50:14][INFO] WBNCF:  171: 8/10 folds time cost: 91.37729454040527
[09/15 22:50:14][INFO] WBNCF:  158: begin train fold 9/10
[09/15 22:51:42][INFO] WBNCF:  160: end train fold 9/10
[09/15 22:51:42][INFO] WBNCF:   77: eval time cost: 0.788762092590332
[09/15 22:51:42][INFO] WBNCF:   85: WBNCF(
  (drug_neighbor_encoder): NeighborEmbedding(
    (shutcut): Linear(in_features=593, out_features=32, bias=True)
    (bgnn): BGCNA(593, 32)
    (dropout): Dropout(p=0.4, inplace=False)
  )
  (disease_neighbor_encoder): NeighborEmbedding(
    (shutcut): Linear(in_features=313, out_features=32, bias=True)
    (bgnn): BGCNA(313, 32)
    (dropout): Dropout(p=0.4, inplace=False)
  )
  (interaction_encoder): InteractionEmbedding(
    (drug_project): Linear(in_features=593, out_features=64, bias=False)
    (disease_project): Linear(in_features=313, out_features=64, bias=False)
    (dropout): Dropout(p=0.4, inplace=False)
  )
  (decoder): InteractionDecoder(
    (decoder): Sequential(
      (0): Linear(in_features=128, out_features=64, bias=True)
      (1): ReLU(inplace=True)
      (2): Dropout(p=0.4, inplace=False)
      (3): Linear(in_features=64, out_features=32, bias=True)
      (4): ReLU(inplace=True)
      (5): Dropout(p=0.4, inplace=False)
      (6): Linear(in_features=32, out_features=1, bias=True)
      (7): Sigmoid()
    )
  )
)
[09/15 22:51:42][INFO] WBNCF:   86: save time cost: 0.0011217594146728516
[09/15 22:51:42][INFO] WBNCF:  170: 9/10 folds: {'aupr': 0.28324849674273334, 'auroc': 0.8763675898794611, 'lagcn_aupr': 0.2988077287512714, 'lagcn_auc': 0.8763680141878061, 'lagcn_f1_score': 0.3929471, 'lagcn_accuracy': 0.98701507, 'lagcn_recall': 0.4041451, 'lagcn_specificity': 0.99313986, 'lagcn_precision': 0.38235295}
…
