…
 'global_test_all_zero': False,
 'gpus': 1,
 'hidden_dims': [64, 32],
 'lamda': 0.9,
 'log_dir': 'eval2-2\\global-10-fold\\Fdataset\\WBNCF\\2023-09-18_09-27-38',
 'loss_fn': 'focal',
 'lr': 0.0005,
 'model': 'NNCFDR',
 'n_disease': 313,
 'n_drug': 593,
 'n_splits': 10,
 'neighbor_embedding_dim': 32,
 'pos_weight': 95.02121055354371,
 'profiler': False,
 'seed': 666,
 'separate': False,
 'size_u': 593,
 'size_v': 313,
 'split_mode': 'global',
 'time_stamp': '2023-09-18_09-27-38',
 'train_fill_unknown': False}
[09/18 09:27:43][INFO] WBNCF:  157: WBNCF(
  (drug_neighbor_encoder): NeighborEmbedding(
    (shutcut): Linear(in_features=593, out_features=32, bias=True)
    (bgnn): BGCNA(593, 32)
    (dropout): Dropout(p=0.4, inplace=False)
  )
  (disease_neighbor_encoder): NeighborEmbedding(
    (shutcut): Linear(in_features=313, out_features=32, bias=True)
    (bgnn): BGCNA(313, 32)
    (dropout): Dropout(p=0.4, inplace=False)
  )
  (interaction_encoder): InteractionEmbedding(
    (drug_project): Linear(in_features=593, out_features=64, bias=False)
    (disease_project): Linear(in_features=313, out_features=64, bias=False)
    (dropout): Dropout(p=0.4, inplace=False)
  )
  (decoder): InteractionDecoder(
    (decoder): Sequential(
      (0): Linear(in_features=128, out_features=64, bias=True)
      (1): ReLU(inplace=True)
      (2): Dropout(p=0.4, inplace=False)
      (3): Linear(in_features=64, out_features=32, bias=True)
      (4): ReLU(inplace=True)
      (5): Dropout(p=0.4, inplace=False)
      (6): Linear(in_features=32, out_features=1, bias=True)
      (7): Sigmoid()
    )
  )
)
[09/18 09:27:43][INFO] WBNCF:  158: begin train fold 0/10
[09/18 09:29:05][INFO] WBNCF:  160: end train fold 0/10
[09/18 09:29:06][INFO] WBNCF:   77: eval time cost: 1.0289342403411865
[09/18 09:29:06][INFO] WBNCF:   85: WBNCF(
  (drug_neighbor_encoder): NeighborEmbedding(
    (shutcut): Linear(in_features=593, out_features=32, bias=True)
    (bgnn): BGCNA(593, 32)
    (dropout): Dropout(p=0.4, inplace=False)
  )
  (disease_neighbor_encoder): NeighborEmbedding(
    (shutcut): Linear(in_features=313, out_features=32, bias=True)
    (bgnn): BGCNA(313, 32)
    (dropout): Dropout(p=0.4, inplace=False)
  )
  (interaction_encoder): InteractionEmbedding(
    (drug_project): Linear(in_features=593, out_features=64, bias=False)
    (disease_project): Linear(in_features=313, out_features=64, bias=False)
    (dropout): Dropout(p=0.4, inplace=False)
  )
  (decoder): InteractionDecoder(
    (decoder): Sequential(
      (0): Linear(in_features=128, out_features=64, bias=True)
      (1): ReLU(inplace=True)
      (2): Dropout(p=0.4, inplace=False)
      (3): Linear(in_features=64, out_features=32, bias=True)
      (4): ReLU(inplace=True)
      (5): Dropout(p=0.4, inplace=False)
      (6): Linear(in_features=32, out_features=1, bias=True)
      (7): Sigmoid()
    )
  )
)
[09/18 09:29:06][INFO] WBNCF:   86: save time cost: 0.0020012855529785156
[09/18 09:29:06][INFO] WBNCF:  170: 0/10 folds: {'aupr': 0.4512189948558846, 'auroc': 0.866718845414706, 'lagcn_aupr': 0.4553266282672531, 'lagcn_auc': 0.8667119780886277, 'lagcn_f1_score': 0.49673203, 'lagcn_accuracy': 0.99170345, 'lagcn_recall': 0.39175257, 'lagcn_specificity': 0.9980401, 'lagcn_precision': 0.6785714}
[09/18 09:29:06][INFO] WBNCF:  171: 0/10 folds time cost: 87.74354290962219
[09/18 09:29:06][INFO] WBNCF:  158: begin train fold 1/10
[09/18 09:30:27][INFO] WBNCF:  160: end train fold 1/10
[09/18 09:30:28][INFO] WBNCF:   77: eval time cost: 0.8184854984283447
[09/18 09:30:28][INFO] WBNCF:   85: WBNCF(
  (drug_neighbor_encoder): NeighborEmbedding(
    (shutcut): Linear(in_features=593, out_features=32, bias=True)
    (bgnn): BGCNA(593, 32)
    (dropout): Dropout(p=0.4, inplace=False)
  )
  (disease_neighbor_encoder): NeighborEmbedding(
    (shutcut): Linear(in_features=313, out_features=32, bias=True)
    (bgnn): BGCNA(313, 32)
    (dropout): Dropout(p=0.4, inplace=False)
  )
  (interaction_encoder): InteractionEmbedding(
    (drug_project): Linear(in_features=593, out_features=64, bias=False)
    (disease_project): Linear(in_features=313, out_features=64, bias=False)
    (dropout): Dropout(p=0.4, inplace=False)
  )
  (decoder): InteractionDecoder(
    (decoder): Sequential(
      (0): Linear(in_features=128, out_features=64, bias=True)
      (1): ReLU(inplace=True)
      (2): Dropout(p=0.4, inplace=False)
      (3): Linear(in_features=64, out_features=32, bias=True)
      (4): ReLU(inplace=True)
      (5): Dropout(p=0.4, inplace=False)
      (6): Linear(in_features=32, out_features=1, bias=True)
      (7): Sigmoid()
    )
  )
)
[09/18 09:30:28][INFO] WBNCF:   86: save time cost: 0.004018545150756836
[09/18 09:30:28][INFO] WBNCF:  170: 1/10 folds: {'aupr': 0.5578233083141186, 'auroc': 0.898085588113797, 'lagcn_aupr': 0.5551411227337899, 'lagcn_auc': 0.8980907900123523, 'lagcn_f1_score': 0.5751634, 'lagcn_accuracy': 0.99299645, 'lagcn_recall': 0.45360824, 'lagcn_specificity': 0.9986934, 'lagcn_precision': 0.78571427}
[09/18 09:30:28][INFO] WBNCF:  171: 1/10 folds time cost: 82.12226176261902
[09/18 09:30:28][INFO] WBNCF:  158: begin train fold 2/10
[09/18 09:31:48][INFO] WBNCF:  160: end train fold 2/10
[09/18 09:31:49][INFO] WBNCF:   77: eval time cost: 0.8434598445892334
[09/18 09:31:49][INFO] WBNCF:   85: WBNCF(
  (drug_neighbor_encoder): NeighborEmbedding(
    (shutcut): Linear(in_features=593, out_features=32, bias=True)
    (bgnn): BGCNA(593, 32)
    (dropout): Dropout(p=0.4, inplace=False)
  )
  (disease_neighbor_encoder): NeighborEmbedding(
    (shutcut): Linear(in_features=313, out_features=32, bias=True)
    (bgnn): BGCNA(313, 32)
    (dropout): Dropout(p=0.4, inplace=False)
  )
  (interaction_encoder): InteractionEmbedding(
    (drug_project): Linear(in_features=593, out_features=64, bias=False)
    (disease_project): Linear(in_features=313, out_features=64, bias=False)
    (dropout): Dropout(p=0.4, inplace=False)
  )
  (decoder): InteractionDecoder(
    (decoder): Sequential(
      (0): Linear(in_features=128, out_features=64, bias=True)
      (1): ReLU(inplace=True)
      (2): Dropout(p=0.4, inplace=False)
      (3): Linear(in_features=64, out_features=32, bias=True)
      (4): ReLU(inplace=True)
      (5): Dropout(p=0.4, inplace=False)
      (6): Linear(in_features=32, out_features=1, bias=True)
      (7): Sigmoid()
    )
  )
)
[09/18 09:31:49][INFO] WBNCF:   86: save time cost: 0.00299835205078125
[09/18 09:31:49][INFO] WBNCF:  170: 2/10 folds: {'aupr': 0.5246336708300974, 'auroc': 0.9059730167211465, 'lagcn_aupr': 0.521754275592377, 'lagcn_auc': 0.9059637646163217, 'lagcn_f1_score': 0.53185594, 'lagcn_accuracy': 0.9908954, 'lagcn_recall': 0.49484536, 'lagcn_specificity': 0.9961346, 'lagcn_precision': 0.5748503}
[09/18 09:31:49][INFO] WBNCF:  171: 2/10 folds time cost: 81.15651535987854
[09/18 09:31:49][INFO] WBNCF:  158: begin train fold 3/10
[09/18 09:33:06][INFO] WBNCF:  160: end train fold 3/10
[09/18 09:33:07][INFO] WBNCF:   77: eval time cost: 0.9713621139526367
[09/18 09:33:07][INFO] WBNCF:   85: WBNCF(
  (drug_neighbor_encoder): NeighborEmbedding(
    (shutcut): Linear(in_features=593, out_features=32, bias=True)
    (bgnn): BGCNA(593, 32)
    (dropout): Dropout(p=0.4, inplace=False)
  )
  (disease_neighbor_encoder): NeighborEmbedding(
    (shutcut): Linear(in_features=313, out_features=32, bias=True)
    (bgnn): BGCNA(313, 32)
    (dropout): Dropout(p=0.4, inplace=False)
  )
  (interaction_encoder): InteractionEmbedding(
    (drug_project): Linear(in_features=593, out_features=64, bias=False)
    (disease_project): Linear(in_features=313, out_features=64, bias=False)
    (dropout): Dropout(p=0.4, inplace=False)
  )
  (decoder): InteractionDecoder(
    (decoder): Sequential(
      (0): Linear(in_features=128, out_features=64, bias=True)
      (1): ReLU(inplace=True)
      (2): Dropout(p=0.4, inplace=False)
      (3): Linear(in_features=64, out_features=32, bias=True)
      (4): ReLU(inplace=True)
      (5): Dropout(p=0.4, inplace=False)
      (6): Linear(in_features=32, out_features=1, bias=True)
      (7): Sigmoid()
    )
  )
)
[09/18 09:33:07][INFO] WBNCF:   86: save time cost: 0.002963542938232422
[09/18 09:33:07][INFO] WBNCF:  170: 3/10 folds: {'aupr': 0.46343573284374034, 'auroc': 0.9065855407466918, 'lagcn_aupr': 0.45948702596920254, 'lagcn_auc': 0.9065759544445068, 'lagcn_f1_score': 0.4918033, 'lagcn_accuracy': 0.99164915, 'lagcn_recall': 0.38860103, 'lagcn_specificity': 0.9979856, 'lagcn_precision': 0.66964287}
[09/18 09:33:07][INFO] WBNCF:  171: 3/10 folds time cost: 78.11491823196411
[09/18 09:33:07][INFO] WBNCF:  158: begin train fold 4/10
[09/18 09:34:25][INFO] WBNCF:  160: end train fold 4/10
[09/18 09:34:26][INFO] WBNCF:   77: eval time cost: 0.754645586013794
[09/18 09:34:26][INFO] WBNCF:   85: WBNCF(
  (drug_neighbor_encoder): NeighborEmbedding(
    (shutcut): Linear(in_features=593, out_features=32, bias=True)
    (bgnn): BGCNA(593, 32)
    (dropout): Dropout(p=0.4, inplace=False)
  )
  (disease_neighbor_encoder): NeighborEmbedding(
    (shutcut): Linear(in_features=313, out_features=32, bias=True)
    (bgnn): BGCNA(313, 32)
    (dropout): Dropout(p=0.4, inplace=False)
  )
  (interaction_encoder): InteractionEmbedding(
    (drug_project): Linear(in_features=593, out_features=64, bias=False)
    (disease_project): Linear(in_features=313, out_features=64, bias=False)
    (dropout): Dropout(p=0.4, inplace=False)
  )
  (decoder): InteractionDecoder(
    (decoder): Sequential(
      (0): Linear(in_features=128, out_features=64, bias=True)
      (1): ReLU(inplace=True)
      (2): Dropout(p=0.4, inplace=False)
      (3): Linear(in_features=64, out_features=32, bias=True)
      (4): ReLU(inplace=True)
      (5): Dropout(p=0.4, inplace=False)
      (6): Linear(in_features=32, out_features=1, bias=True)
      (7): Sigmoid()
    )
  )
)
[09/18 09:34:26][INFO] WBNCF:   86: save time cost: 0.0032236576080322266
[09/18 09:34:26][INFO] WBNCF:  170: 4/10 folds: {'aupr': 0.4129066776194516, 'auroc': 0.846412887472694, 'lagcn_aupr': 0.40722090814168876, 'lagcn_auc': 0.8463822789362581, 'lagcn_f1_score': 0.45454547, 'lagcn_accuracy': 0.99159527, 'lagcn_recall': 0.33678755, 'lagcn_specificity': 0.9984756, 'lagcn_precision': 0.6989247}
[09/18 09:34:26][INFO] WBNCF:  171: 4/10 folds time cost: 78.36293077468872
[09/18 09:34:26][INFO] WBNCF:  158: begin train fold 5/10
[09/18 09:35:45][INFO] WBNCF:  160: end train fold 5/10
[09/18 09:35:46][INFO] WBNCF:   77: eval time cost: 0.8392210006713867
[09/18 09:35:46][INFO] WBNCF:   85: WBNCF(
  (drug_neighbor_encoder): NeighborEmbedding(
    (shutcut): Linear(in_features=593, out_features=32, bias=True)
    (bgnn): BGCNA(593, 32)
    (dropout): Dropout(p=0.4, inplace=False)
  )
  (disease_neighbor_encoder): NeighborEmbedding(
    (shutcut): Linear(in_features=313, out_features=32, bias=True)
    (bgnn): BGCNA(313, 32)
    (dropout): Dropout(p=0.4, inplace=False)
  )
  (interaction_encoder): InteractionEmbedding(
    (drug_project): Linear(in_features=593, out_features=64, bias=False)
    (disease_project): Linear(in_features=313, out_features=64, bias=False)
    (dropout): Dropout(p=0.4, inplace=False)
  )
  (decoder): InteractionDecoder(
    (decoder): Sequential(
      (0): Linear(in_features=128, out_features=64, bias=True)
      (1): ReLU(inplace=True)
      (2): Dropout(p=0.4, inplace=False)
      (3): Linear(in_features=64, out_features=32, bias=True)
      (4): ReLU(inplace=True)
      (5): Dropout(p=0.4, inplace=False)
      (6): Linear(in_features=32, out_features=1, bias=True)
      (7): Sigmoid()
    )
  )
)
[09/18 09:35:46][INFO] WBNCF:   86: save time cost: 0.0030062198638916016
[09/18 09:35:46][INFO] WBNCF:  170: 5/10 folds: {'aupr': 0.47015368290545967, 'auroc': 0.8755455534292574, 'lagcn_aupr': 0.46468341924752654, 'lagcn_auc': 0.8755346902708553, 'lagcn_f1_score': 0.49707603, 'lagcn_accuracy': 0.99073327, 'lagcn_recall': 0.44041452, 'lagcn_specificity': 0.9965157, 'lagcn_precision': 0.5704698}
[09/18 09:35:46][INFO] WBNCF:  171: 5/10 folds time cost: 80.72505187988281
[09/18 09:35:46][INFO] WBNCF:  158: begin train fold 6/10
[09/18 09:37:07][INFO] WBNCF:  160: end train fold 6/10
[09/18 09:37:08][INFO] WBNCF:   77: eval time cost: 0.7876477241516113
[09/18 09:37:08][INFO] WBNCF:   85: WBNCF(
  (drug_neighbor_encoder): NeighborEmbedding(
    (shutcut): Linear(in_features=593, out_features=32, bias=True)
    (bgnn): BGCNA(593, 32)
    (dropout): Dropout(p=0.4, inplace=False)
  )
  (disease_neighbor_encoder): NeighborEmbedding(
    (shutcut): Linear(in_features=313, out_features=32, bias=True)
    (bgnn): BGCNA(313, 32)
    (dropout): Dropout(p=0.4, inplace=False)
  )
  (interaction_encoder): InteractionEmbedding(
    (drug_project): Linear(in_features=593, out_features=64, bias=False)
    (disease_project): Linear(in_features=313, out_features=64, bias=False)
    (dropout): Dropout(p=0.4, inplace=False)
  )
  (decoder): InteractionDecoder(
    (decoder): Sequential(
      (0): Linear(in_features=128, out_features=64, bias=True)
      (1): ReLU(inplace=True)
      (2): Dropout(p=0.4, inplace=False)
      (3): Linear(in_features=64, out_features=32, bias=True)
      (4): ReLU(inplace=True)
      (5): Dropout(p=0.4, inplace=False)
      (6): Linear(in_features=32, out_features=1, bias=True)
      (7): Sigmoid()
    )
  )
)
[09/18 09:37:08][INFO] WBNCF:   86: save time cost: 0.003002643585205078
[09/18 09:37:08][INFO] WBNCF:  170: 6/10 folds: {'aupr': 0.38968221111797446, 'auroc': 0.8522750449880403, 'lagcn_aupr': 0.3920804875766394, 'lagcn_auc': 0.8522718008036008, 'lagcn_f1_score': 0.4502924, 'lagcn_accuracy': 0.98987067, 'lagcn_recall': 0.39896372, 'lagcn_specificity': 0.9960799, 'lagcn_precision': 0.5167785}
[09/18 09:37:08][INFO] WBNCF:  171: 6/10 folds time cost: 81.78733444213867
[09/18 09:37:08][INFO] WBNCF:  158: begin train fold 7/10
[09/18 09:38:25][INFO] WBNCF:  160: end train fold 7/10
[09/18 09:38:26][INFO] WBNCF:   77: eval time cost: 0.7916767597198486
[09/18 09:38:26][INFO] WBNCF:   85: WBNCF(
  (drug_neighbor_encoder): NeighborEmbedding(
    (shutcut): Linear(in_features=593, out_features=32, bias=True)
    (bgnn): BGCNA(593, 32)
    (dropout): Dropout(p=0.4, inplace=False)
  )
  (disease_neighbor_encoder): NeighborEmbedding(
    (shutcut): Linear(in_features=313, out_features=32, bias=True)
    (bgnn): BGCNA(313, 32)
    (dropout): Dropout(p=0.4, inplace=False)
  )
  (interaction_encoder): InteractionEmbedding(
    (drug_project): Linear(in_features=593, out_features=64, bias=False)
    (disease_project): Linear(in_features=313, out_features=64, bias=False)
    (dropout): Dropout(p=0.4, inplace=False)
  )
  (decoder): InteractionDecoder(
    (decoder): Sequential(
      (0): Linear(in_features=128, out_features=64, bias=True)
      (1): ReLU(inplace=True)
      (2): Dropout(p=0.4, inplace=False)
      (3): Linear(in_features=64, out_features=32, bias=True)
      (4): ReLU(inplace=True)
      (5): Dropout(p=0.4, inplace=False)
      (6): Linear(in_features=32, out_features=1, bias=True)
      (7): Sigmoid()
    )
  )
)
[09/18 09:38:26][INFO] WBNCF:   86: save time cost: 0.003236055374145508
[09/18 09:38:26][INFO] WBNCF:  170: 7/10 folds: {'aupr': 0.5141121130560719, 'auroc': 0.882489461415791, 'lagcn_aupr': 0.5118312167867993, 'lagcn_auc': 0.8824694333145044, 'lagcn_f1_score': 0.55727553, 'lagcn_accuracy': 0.99229527, 'lagcn_recall': 0.46632123, 'lagcn_specificity': 0.99782217, 'lagcn_precision': 0.6923077}
[09/18 09:38:26][INFO] WBNCF:  171: 7/10 folds time cost: 78.2471911907196
[09/18 09:38:26][INFO] WBNCF:  158: begin train fold 8/10
[09/18 09:39:43][INFO] WBNCF:  160: end train fold 8/10
[09/18 09:39:44][INFO] WBNCF:   77: eval time cost: 0.8274991512298584
[09/18 09:39:44][INFO] WBNCF:   85: WBNCF(
  (drug_neighbor_encoder): NeighborEmbedding(
    (shutcut): Linear(in_features=593, out_features=32, bias=True)
    (bgnn): BGCNA(593, 32)
    (dropout): Dropout(p=0.4, inplace=False)
  )
  (disease_neighbor_encoder): NeighborEmbedding(
    (shutcut): Linear(in_features=313, out_features=32, bias=True)
    (bgnn): BGCNA(313, 32)
    (dropout): Dropout(p=0.4, inplace=False)
  )
  (interaction_encoder): InteractionEmbedding(
    (drug_project): Linear(in_features=593, out_features=64, bias=False)
    (disease_project): Linear(in_features=313, out_features=64, bias=False)
    (dropout): Dropout(p=0.4, inplace=False)
  )
  (decoder): InteractionDecoder(
    (decoder): Sequential(
      (0): Linear(in_features=128, out_features=64, bias=True)
      (1): ReLU(inplace=True)
      (2): Dropout(p=0.4, inplace=False)
      (3): Linear(in_features=64, out_features=32, bias=True)
      (4): ReLU(inplace=True)
      (5): Dropout(p=0.4, inplace=False)
      (6): Linear(in_features=32, out_features=1, bias=True)
      (7): Sigmoid()
    )
  )
)
[09/18 09:39:44][INFO] WBNCF:   86: save time cost: 0.0030379295349121094
[09/18 09:39:44][INFO] WBNCF:  170: 8/10 folds: {'aupr': 0.4901923529893028, 'auroc': 0.8831332156596464, 'lagcn_aupr': 0.4844477861718733, 'lagcn_auc': 0.8831099422496097, 'lagcn_f1_score': 0.50491804, 'lagcn_accuracy': 0.9918642, 'lagcn_recall': 0.39896372, 'lagcn_specificity': 0.9980944, 'lagcn_precision': 0.6875}
[09/18 09:39:44][INFO] WBNCF:  171: 8/10 folds time cost: 77.6212887763977
[09/18 09:39:44][INFO] WBNCF:  158: begin train fold 9/10
[09/18 09:41:01][INFO] WBNCF:  160: end train fold 9/10
[09/18 09:41:02][INFO] WBNCF:   77: eval time cost: 0.9216547012329102
[09/18 09:41:02][INFO] WBNCF:   85: WBNCF(
  (drug_neighbor_encoder): NeighborEmbedding(
    (shutcut): Linear(in_features=593, out_features=32, bias=True)
    (bgnn): BGCNA(593, 32)
    (dropout): Dropout(p=0.4, inplace=False)
  )
  (disease_neighbor_encoder): NeighborEmbedding(
    (shutcut): Linear(in_features=313, out_features=32, bias=True)
    (bgnn): BGCNA(313, 32)
    (dropout): Dropout(p=0.4, inplace=False)
  )
  (interaction_encoder): InteractionEmbedding(
    (drug_project): Linear(in_features=593, out_features=64, bias=False)
    (disease_project): Linear(in_features=313, out_features=64, bias=False)
    (dropout): Dropout(p=0.4, inplace=False)
  )
  (decoder): InteractionDecoder(
    (decoder): Sequential(
      (0): Linear(in_features=128, out_features=64, bias=True)
      (1): ReLU(inplace=True)
      (2): Dropout(p=0.4, inplace=False)
      (3): Linear(in_features=64, out_features=32, bias=True)
      (4): ReLU(inplace=True)
      (5): Dropout(p=0.4, inplace=False)
      (6): Linear(in_features=32, out_features=1, bias=True)
      (7): Sigmoid()
    )
  )
)
[09/18 09:41:02][INFO] WBNCF:   86: save time cost: 0.0030145645141601562
[09/18 09:41:02][INFO] WBNCF:  170: 9/10 folds: {'aupr': 0.4061497818125016, 'auroc': 0.8743498632233806, 'lagcn_aupr': 0.3977925856289018, 'lagcn_auc': 0.8743313897295917, 'lagcn_f1_score': 0.4520124, 'lagcn_accuracy': 0.9904634, 'lagcn_recall': 0.37823835, 'lagcn_specificity': 0.9968966, 'lagcn_precision': 0.56153846}
…
