…
 'global_test_all_zero': False,
 'gpus': 1,
 'hidden_dims': [64, 32],
 'lamda': 0.9,
 'log_dir': 'eval2-2\\global-10-fold\\Fdataset\\WBNCF\\2023-09-17_22-08-07',
 'loss_fn': 'focal',
 'lr': 0.0005,
 'model': 'NNCFDR',
 'n_disease': 313,
 'n_drug': 593,
 'n_splits': 10,
 'neighbor_embedding_dim': 32,
 'pos_weight': 95.02121055354371,
 'profiler': False,
 'seed': 666,
 'separate': False,
 'size_u': 593,
 'size_v': 313,
 'split_mode': 'global',
 'time_stamp': '2023-09-17_22-08-07',
 'train_fill_unknown': False}
[09/17 22:08:08][INFO] WBNCF:  157: WBNCF(
  (drug_neighbor_encoder): NeighborEmbedding(
    (shutcut): Linear(in_features=593, out_features=32, bias=True)
    (bgnn): BGCNA(593, 32)
    (dropout): Dropout(p=0.4, inplace=False)
  )
  (disease_neighbor_encoder): NeighborEmbedding(
    (shutcut): Linear(in_features=313, out_features=32, bias=True)
    (bgnn): BGCNA(313, 32)
    (dropout): Dropout(p=0.4, inplace=False)
  )
  (interaction_encoder): InteractionEmbedding(
    (drug_project): Linear(in_features=593, out_features=64, bias=False)
    (disease_project): Linear(in_features=313, out_features=64, bias=False)
    (dropout): Dropout(p=0.4, inplace=False)
  )
  (decoder): InteractionDecoder(
    (decoder): Sequential(
      (0): Linear(in_features=128, out_features=64, bias=True)
      (1): ReLU(inplace=True)
      (2): Dropout(p=0.4, inplace=False)
      (3): Linear(in_features=64, out_features=32, bias=True)
      (4): ReLU(inplace=True)
      (5): Dropout(p=0.4, inplace=False)
      (6): Linear(in_features=32, out_features=1, bias=True)
      (7): Sigmoid()
    )
  )
)
[09/17 22:08:08][INFO] WBNCF:  158: begin train fold 0/10
[09/17 22:08:10][INFO] WBNCF:  160: end train fold 0/10
[09/17 22:08:11][INFO] WBNCF:   77: eval time cost: 0.9492669105529785
[09/17 22:08:11][INFO] WBNCF:   85: WBNCF(
  (drug_neighbor_encoder): NeighborEmbedding(
    (shutcut): Linear(in_features=593, out_features=32, bias=True)
    (bgnn): BGCNA(593, 32)
    (dropout): Dropout(p=0.4, inplace=False)
  )
  (disease_neighbor_encoder): NeighborEmbedding(
    (shutcut): Linear(in_features=313, out_features=32, bias=True)
    (bgnn): BGCNA(313, 32)
    (dropout): Dropout(p=0.4, inplace=False)
  )
  (interaction_encoder): InteractionEmbedding(
    (drug_project): Linear(in_features=593, out_features=64, bias=False)
    (disease_project): Linear(in_features=313, out_features=64, bias=False)
    (dropout): Dropout(p=0.4, inplace=False)
  )
  (decoder): InteractionDecoder(
    (decoder): Sequential(
      (0): Linear(in_features=128, out_features=64, bias=True)
      (1): ReLU(inplace=True)
      (2): Dropout(p=0.4, inplace=False)
      (3): Linear(in_features=64, out_features=32, bias=True)
      (4): ReLU(inplace=True)
      (5): Dropout(p=0.4, inplace=False)
      (6): Linear(in_features=32, out_features=1, bias=True)
      (7): Sigmoid()
    )
  )
)
[09/17 22:08:11][INFO] WBNCF:   86: save time cost: 0.002513885498046875
[09/17 22:08:11][INFO] WBNCF:  170: 0/10 folds: {'aupr': 0.010587630782353894, 'auroc': 0.5034019552157046, 'lagcn_aupr': 0.010418159251913547, 'lagcn_auc': 0.5033887642751782, 'lagcn_f1_score': 0.022275945, 'lagcn_accuracy': 0.38993642, 'lagcn_recall': 0.66494846, 'lagcn_specificity': 0.3870318, 'lagcn_precision': 0.011327714}
[09/17 22:08:11][INFO] WBNCF:  171: 0/10 folds time cost: 4.314022541046143
[09/17 22:08:11][INFO] WBNCF:  158: begin train fold 1/10
[09/17 22:08:13][INFO] WBNCF:  160: end train fold 1/10
[09/17 22:08:14][INFO] WBNCF:   77: eval time cost: 0.8345115184783936
[09/17 22:08:14][INFO] WBNCF:   85: WBNCF(
  (drug_neighbor_encoder): NeighborEmbedding(
    (shutcut): Linear(in_features=593, out_features=32, bias=True)
    (bgnn): BGCNA(593, 32)
    (dropout): Dropout(p=0.4, inplace=False)
  )
  (disease_neighbor_encoder): NeighborEmbedding(
    (shutcut): Linear(in_features=313, out_features=32, bias=True)
    (bgnn): BGCNA(313, 32)
    (dropout): Dropout(p=0.4, inplace=False)
  )
  (interaction_encoder): InteractionEmbedding(
    (drug_project): Linear(in_features=593, out_features=64, bias=False)
    (disease_project): Linear(in_features=313, out_features=64, bias=False)
    (dropout): Dropout(p=0.4, inplace=False)
  )
  (decoder): InteractionDecoder(
    (decoder): Sequential(
      (0): Linear(in_features=128, out_features=64, bias=True)
      (1): ReLU(inplace=True)
      (2): Dropout(p=0.4, inplace=False)
      (3): Linear(in_features=64, out_features=32, bias=True)
      (4): ReLU(inplace=True)
      (5): Dropout(p=0.4, inplace=False)
      (6): Linear(in_features=32, out_features=1, bias=True)
      (7): Sigmoid()
    )
  )
)
[09/17 22:08:14][INFO] WBNCF:   86: save time cost: 0.003000497817993164
[09/17 22:08:14][INFO] WBNCF:  170: 1/10 folds: {'aupr': 0.010286607719409807, 'auroc': 0.47526682441898055, 'lagcn_aupr': 0.012528157361273932, 'lagcn_auc': 0.4752642943507609, 'lagcn_f1_score': 0.0218436, 'lagcn_accuracy': 0.87937725, 'lagcn_recall': 0.12886597, 'lagcn_specificity': 0.887304, 'lagcn_precision': 0.011933174}
[09/17 22:08:14][INFO] WBNCF:  171: 1/10 folds time cost: 2.4960973262786865
[09/17 22:08:14][INFO] WBNCF:  158: begin train fold 2/10
[09/17 22:08:15][INFO] WBNCF:  160: end train fold 2/10
[09/17 22:08:16][INFO] WBNCF:   77: eval time cost: 0.9758574962615967
[09/17 22:08:16][INFO] WBNCF:   85: WBNCF(
  (drug_neighbor_encoder): NeighborEmbedding(
    (shutcut): Linear(in_features=593, out_features=32, bias=True)
    (bgnn): BGCNA(593, 32)
    (dropout): Dropout(p=0.4, inplace=False)
  )
  (disease_neighbor_encoder): NeighborEmbedding(
    (shutcut): Linear(in_features=313, out_features=32, bias=True)
    (bgnn): BGCNA(313, 32)
    (dropout): Dropout(p=0.4, inplace=False)
  )
  (interaction_encoder): InteractionEmbedding(
    (drug_project): Linear(in_features=593, out_features=64, bias=False)
    (disease_project): Linear(in_features=313, out_features=64, bias=False)
    (dropout): Dropout(p=0.4, inplace=False)
  )
  (decoder): InteractionDecoder(
    (decoder): Sequential(
      (0): Linear(in_features=128, out_features=64, bias=True)
      (1): ReLU(inplace=True)
      (2): Dropout(p=0.4, inplace=False)
      (3): Linear(in_features=64, out_features=32, bias=True)
      (4): ReLU(inplace=True)
      (5): Dropout(p=0.4, inplace=False)
      (6): Linear(in_features=32, out_features=1, bias=True)
      (7): Sigmoid()
    )
  )
)
[09/17 22:08:16][INFO] WBNCF:   86: save time cost: 0.002966165542602539
[09/17 22:08:16][INFO] WBNCF:  170: 2/10 folds: {'aupr': 0.012419779169322076, 'auroc': 0.5216251818492044, 'lagcn_aupr': 0.013942235675181146, 'lagcn_auc': 0.521635985185021, 'lagcn_f1_score': 0.025430067, 'lagcn_accuracy': 0.92980283, 'lagcn_recall': 0.087628864, 'lagcn_specificity': 0.93869776, 'lagcn_precision': 0.0148731405}
[09/17 22:08:16][INFO] WBNCF:  171: 2/10 folds time cost: 2.5967538356781006
[09/17 22:08:16][INFO] WBNCF:  158: begin train fold 3/10
[09/17 22:08:18][INFO] WBNCF:  160: end train fold 3/10
[09/17 22:08:19][INFO] WBNCF:   77: eval time cost: 0.8809008598327637
[09/17 22:08:19][INFO] WBNCF:   85: WBNCF(
  (drug_neighbor_encoder): NeighborEmbedding(
    (shutcut): Linear(in_features=593, out_features=32, bias=True)
    (bgnn): BGCNA(593, 32)
    (dropout): Dropout(p=0.4, inplace=False)
  )
  (disease_neighbor_encoder): NeighborEmbedding(
    (shutcut): Linear(in_features=313, out_features=32, bias=True)
    (bgnn): BGCNA(313, 32)
    (dropout): Dropout(p=0.4, inplace=False)
  )
  (interaction_encoder): InteractionEmbedding(
    (drug_project): Linear(in_features=593, out_features=64, bias=False)
    (disease_project): Linear(in_features=313, out_features=64, bias=False)
    (dropout): Dropout(p=0.4, inplace=False)
  )
  (decoder): InteractionDecoder(
    (decoder): Sequential(
      (0): Linear(in_features=128, out_features=64, bias=True)
      (1): ReLU(inplace=True)
      (2): Dropout(p=0.4, inplace=False)
      (3): Linear(in_features=64, out_features=32, bias=True)
      (4): ReLU(inplace=True)
      (5): Dropout(p=0.4, inplace=False)
      (6): Linear(in_features=32, out_features=1, bias=True)
      (7): Sigmoid()
    )
  )
)
[09/17 22:08:19][INFO] WBNCF:   86: save time cost: 0.01978158950805664
[09/17 22:08:19][INFO] WBNCF:  170: 3/10 folds: {'aupr': 0.009783593757014512, 'auroc': 0.48726228651766534, 'lagcn_aupr': 0.009661142150266852, 'lagcn_auc': 0.4872718786218999, 'lagcn_f1_score': 0.021125901, 'lagcn_accuracy': 0.13625343, 'lagcn_recall': 0.89637303, 'lagcn_specificity': 0.12826654, 'lagcn_precision': 0.010688909}
[09/17 22:08:19][INFO] WBNCF:  171: 3/10 folds time cost: 2.543073892593384
[09/17 22:08:19][INFO] WBNCF:  158: begin train fold 4/10
[09/17 22:08:20][INFO] WBNCF:  160: end train fold 4/10
[09/17 22:08:21][INFO] WBNCF:   77: eval time cost: 0.8602800369262695
[09/17 22:08:21][INFO] WBNCF:   85: WBNCF(
  (drug_neighbor_encoder): NeighborEmbedding(
    (shutcut): Linear(in_features=593, out_features=32, bias=True)
    (bgnn): BGCNA(593, 32)
    (dropout): Dropout(p=0.4, inplace=False)
  )
  (disease_neighbor_encoder): NeighborEmbedding(
    (shutcut): Linear(in_features=313, out_features=32, bias=True)
    (bgnn): BGCNA(313, 32)
    (dropout): Dropout(p=0.4, inplace=False)
  )
  (interaction_encoder): InteractionEmbedding(
    (drug_project): Linear(in_features=593, out_features=64, bias=False)
    (disease_project): Linear(in_features=313, out_features=64, bias=False)
    (dropout): Dropout(p=0.4, inplace=False)
  )
  (decoder): InteractionDecoder(
    (decoder): Sequential(
      (0): Linear(in_features=128, out_features=64, bias=True)
      (1): ReLU(inplace=True)
      (2): Dropout(p=0.4, inplace=False)
      (3): Linear(in_features=64, out_features=32, bias=True)
      (4): ReLU(inplace=True)
      (5): Dropout(p=0.4, inplace=False)
      (6): Linear(in_features=32, out_features=1, bias=True)
      (7): Sigmoid()
    )
  )
)
[09/17 22:08:21][INFO] WBNCF:   86: save time cost: 0.002000570297241211
[09/17 22:08:21][INFO] WBNCF:  170: 4/10 folds: {'aupr': 0.011422902781792373, 'auroc': 0.5024286154339153, 'lagcn_aupr': 0.011179119023973737, 'lagcn_auc': 0.5024070349993451, 'lagcn_f1_score': 0.034858387, 'lagcn_accuracy': 0.97613275, 'lagcn_recall': 0.041450776, 'lagcn_specificity': 0.9859538, 'lagcn_precision': 0.030075189}
[09/17 22:08:21][INFO] WBNCF:  171: 4/10 folds time cost: 2.441575288772583
[09/17 22:08:21][INFO] WBNCF:  158: begin train fold 5/10
[09/17 22:08:23][INFO] WBNCF:  160: end train fold 5/10
[09/17 22:08:24][INFO] WBNCF:   77: eval time cost: 0.944239616394043
[09/17 22:08:24][INFO] WBNCF:   85: WBNCF(
  (drug_neighbor_encoder): NeighborEmbedding(
    (shutcut): Linear(in_features=593, out_features=32, bias=True)
    (bgnn): BGCNA(593, 32)
    (dropout): Dropout(p=0.4, inplace=False)
  )
  (disease_neighbor_encoder): NeighborEmbedding(
    (shutcut): Linear(in_features=313, out_features=32, bias=True)
    (bgnn): BGCNA(313, 32)
    (dropout): Dropout(p=0.4, inplace=False)
  )
  (interaction_encoder): InteractionEmbedding(
    (drug_project): Linear(in_features=593, out_features=64, bias=False)
    (disease_project): Linear(in_features=313, out_features=64, bias=False)
    (dropout): Dropout(p=0.4, inplace=False)
  )
  (decoder): InteractionDecoder(
    (decoder): Sequential(
      (0): Linear(in_features=128, out_features=64, bias=True)
      (1): ReLU(inplace=True)
      (2): Dropout(p=0.4, inplace=False)
      (3): Linear(in_features=64, out_features=32, bias=True)
      (4): ReLU(inplace=True)
      (5): Dropout(p=0.4, inplace=False)
      (6): Linear(in_features=32, out_features=1, bias=True)
      (7): Sigmoid()
    )
  )
)
[09/17 22:08:24][INFO] WBNCF:   86: save time cost: 0.002004384994506836
[09/17 22:08:24][INFO] WBNCF:  170: 5/10 folds: {'aupr': 0.01072318626554276, 'auroc': 0.4922144391688181, 'lagcn_aupr': 0.010556461940780628, 'lagcn_auc': 0.4922028743313729, 'lagcn_f1_score': 0.026402641, 'lagcn_accuracy': 0.93642586, 'lagcn_recall': 0.08290155, 'lagcn_specificity': 0.94539416, 'lagcn_precision': 0.015701668}
[09/17 22:08:24][INFO] WBNCF:  171: 5/10 folds time cost: 2.761723041534424
[09/17 22:08:24][INFO] WBNCF:  158: begin train fold 6/10
[09/17 22:08:26][INFO] WBNCF:  160: end train fold 6/10
[09/17 22:08:26][INFO] WBNCF:   77: eval time cost: 0.8522646427154541
[09/17 22:08:26][INFO] WBNCF:   85: WBNCF(
  (drug_neighbor_encoder): NeighborEmbedding(
    (shutcut): Linear(in_features=593, out_features=32, bias=True)
    (bgnn): BGCNA(593, 32)
    (dropout): Dropout(p=0.4, inplace=False)
  )
  (disease_neighbor_encoder): NeighborEmbedding(
    (shutcut): Linear(in_features=313, out_features=32, bias=True)
    (bgnn): BGCNA(313, 32)
    (dropout): Dropout(p=0.4, inplace=False)
  )
  (interaction_encoder): InteractionEmbedding(
    (drug_project): Linear(in_features=593, out_features=64, bias=False)
    (disease_project): Linear(in_features=313, out_features=64, bias=False)
    (dropout): Dropout(p=0.4, inplace=False)
  )
  (decoder): InteractionDecoder(
    (decoder): Sequential(
      (0): Linear(in_features=128, out_features=64, bias=True)
      (1): ReLU(inplace=True)
      (2): Dropout(p=0.4, inplace=False)
      (3): Linear(in_features=64, out_features=32, bias=True)
      (4): ReLU(inplace=True)
      (5): Dropout(p=0.4, inplace=False)
      (6): Linear(in_features=32, out_features=1, bias=True)
      (7): Sigmoid()
    )
  )
)
[09/17 22:08:26][INFO] WBNCF:   86: save time cost: 0.002138376235961914
[09/17 22:08:26][INFO] WBNCF:  170: 6/10 folds: {'aupr': 0.01110612022828189, 'auroc': 0.48306153382206374, 'lagcn_aupr': 0.012395266519653284, 'lagcn_auc': 0.4830348756699343, 'lagcn_f1_score': 0.021490224, 'lagcn_accuracy': 0.102101296, 'lagcn_recall': 0.9481865, 'lagcn_specificity': 0.09321065, 'lagcn_precision': 0.010868275}
[09/17 22:08:26][INFO] WBNCF:  171: 6/10 folds time cost: 2.58052921295166
[09/17 22:08:27][INFO] WBNCF:  158: begin train fold 7/10
[09/17 22:08:28][INFO] WBNCF:  160: end train fold 7/10
[09/17 22:08:29][INFO] WBNCF:   77: eval time cost: 0.8192572593688965
[09/17 22:08:29][INFO] WBNCF:   85: WBNCF(
  (drug_neighbor_encoder): NeighborEmbedding(
    (shutcut): Linear(in_features=593, out_features=32, bias=True)
    (bgnn): BGCNA(593, 32)
    (dropout): Dropout(p=0.4, inplace=False)
  )
  (disease_neighbor_encoder): NeighborEmbedding(
    (shutcut): Linear(in_features=313, out_features=32, bias=True)
    (bgnn): BGCNA(313, 32)
    (dropout): Dropout(p=0.4, inplace=False)
  )
  (interaction_encoder): InteractionEmbedding(
    (drug_project): Linear(in_features=593, out_features=64, bias=False)
    (disease_project): Linear(in_features=313, out_features=64, bias=False)
    (dropout): Dropout(p=0.4, inplace=False)
  )
  (decoder): InteractionDecoder(
    (decoder): Sequential(
      (0): Linear(in_features=128, out_features=64, bias=True)
      (1): ReLU(inplace=True)
      (2): Dropout(p=0.4, inplace=False)
      (3): Linear(in_features=64, out_features=32, bias=True)
      (4): ReLU(inplace=True)
      (5): Dropout(p=0.4, inplace=False)
      (6): Linear(in_features=32, out_features=1, bias=True)
      (7): Sigmoid()
    )
  )
)
[09/17 22:08:29][INFO] WBNCF:   86: save time cost: 0.0009489059448242188
[09/17 22:08:29][INFO] WBNCF:  170: 7/10 folds: {'aupr': 0.011301645723529895, 'auroc': 0.48496218860645257, 'lagcn_aupr': 0.011032990355797828, 'lagcn_auc': 0.48495231603872757, 'lagcn_f1_score': 0.031128405, 'lagcn_accuracy': 0.9731681, 'lagcn_recall': 0.041450776, 'lagcn_specificity': 0.98295856, 'lagcn_precision': 0.024922118}
[09/17 22:08:29][INFO] WBNCF:  171: 7/10 folds time cost: 2.3483963012695312
[09/17 22:08:29][INFO] WBNCF:  158: begin train fold 8/10
[09/17 22:08:30][INFO] WBNCF:  160: end train fold 8/10
[09/17 22:08:31][INFO] WBNCF:   77: eval time cost: 0.85044264793396
[09/17 22:08:31][INFO] WBNCF:   85: WBNCF(
  (drug_neighbor_encoder): NeighborEmbedding(
    (shutcut): Linear(in_features=593, out_features=32, bias=True)
    (bgnn): BGCNA(593, 32)
    (dropout): Dropout(p=0.4, inplace=False)
  )
  (disease_neighbor_encoder): NeighborEmbedding(
    (shutcut): Linear(in_features=313, out_features=32, bias=True)
    (bgnn): BGCNA(313, 32)
    (dropout): Dropout(p=0.4, inplace=False)
  )
  (interaction_encoder): InteractionEmbedding(
    (drug_project): Linear(in_features=593, out_features=64, bias=False)
    (disease_project): Linear(in_features=313, out_features=64, bias=False)
    (dropout): Dropout(p=0.4, inplace=False)
  )
  (decoder): InteractionDecoder(
    (decoder): Sequential(
      (0): Linear(in_features=128, out_features=64, bias=True)
      (1): ReLU(inplace=True)
      (2): Dropout(p=0.4, inplace=False)
      (3): Linear(in_features=64, out_features=32, bias=True)
      (4): ReLU(inplace=True)
      (5): Dropout(p=0.4, inplace=False)
      (6): Linear(in_features=32, out_features=1, bias=True)
      (7): Sigmoid()
    )
  )
)
[09/17 22:08:31][INFO] WBNCF:   86: save time cost: 0.001329660415649414
[09/17 22:08:31][INFO] WBNCF:  170: 8/10 folds: {'aupr': 0.0123765067452497, 'auroc': 0.48934787018055304, 'lagcn_aupr': 0.01857021696454452, 'lagcn_auc': 0.4894102151744759, 'lagcn_f1_score': 0.02631579, 'lagcn_accuracy': 0.9880388, 'lagcn_recall': 0.015544041, 'lagcn_specificity': 0.99825776, 'lagcn_precision': 0.08571429}
[09/17 22:08:31][INFO] WBNCF:  171: 8/10 folds time cost: 2.5310373306274414
[09/17 22:08:31][INFO] WBNCF:  158: begin train fold 9/10
[09/17 22:08:33][INFO] WBNCF:  160: end train fold 9/10
[09/17 22:08:34][INFO] WBNCF:   77: eval time cost: 0.8915653228759766
[09/17 22:08:34][INFO] WBNCF:   85: WBNCF(
  (drug_neighbor_encoder): NeighborEmbedding(
    (shutcut): Linear(in_features=593, out_features=32, bias=True)
    (bgnn): BGCNA(593, 32)
    (dropout): Dropout(p=0.4, inplace=False)
  )
  (disease_neighbor_encoder): NeighborEmbedding(
    (shutcut): Linear(in_features=313, out_features=32, bias=True)
    (bgnn): BGCNA(313, 32)
    (dropout): Dropout(p=0.4, inplace=False)
  )
  (interaction_encoder): InteractionEmbedding(
    (drug_project): Linear(in_features=593, out_features=64, bias=False)
    (disease_project): Linear(in_features=313, out_features=64, bias=False)
    (dropout): Dropout(p=0.4, inplace=False)
  )
  (decoder): InteractionDecoder(
    (decoder): Sequential(
      (0): Linear(in_features=128, out_features=64, bias=True)
      (1): ReLU(inplace=True)
      (2): Dropout(p=0.4, inplace=False)
      (3): Linear(in_features=64, out_features=32, bias=True)
      (4): ReLU(inplace=True)
      (5): Dropout(p=0.4, inplace=False)
      (6): Linear(in_features=32, out_features=1, bias=True)
      (7): Sigmoid()
    )
  )
)
[09/17 22:08:34][INFO] WBNCF:   86: save time cost: 0.0020215511322021484
[09/17 22:08:34][INFO] WBNCF:  170: 9/10 folds: {'aupr': 0.010855515863396432, 'auroc': 0.5260649943537505, 'lagcn_aupr': 0.01069448891585866, 'lagcn_auc': 0.5260115351401027, 'lagcn_f1_score': 0.023400366, 'lagcn_accuracy': 0.42435345, 'lagcn_recall': 0.6632124, 'lagcn_specificity': 0.42184353, 'lagcn_precision': 0.011910301}
…
