…
 'global_test_all_zero': False,
 'gpus': 1,
 'hidden_dims': (64, 32),
 'lamda': 0.8,
 'log_dir': 'runs\\global-10-fold\\Fdataset\\WBNCF\\2023-09-16_01-30-37',
 'loss_fn': 'focal',
 'lr': 0.0005,
 'model': 'NNCFDR',
 'n_disease': 313,
 'n_drug': 593,
 'n_splits': 10,
 'neighbor_embedding_dim': 32,
 'pos_weight': 95.02121055354371,
 'profiler': False,
 'seed': 666,
 'separate': False,
 'size_u': 593,
 'size_v': 313,
 'split_mode': 'global',
 'time_stamp': '2023-09-16_01-30-37',
 'train_fill_unknown': True}
[09/16 01:30:38][INFO] WBNCF:  157: WBNCF(
  (drug_neighbor_encoder): NeighborEmbedding(
    (shutcut): Linear(in_features=593, out_features=32, bias=True)
    (bgnn): BGCNA(593, 32)
    (dropout): Dropout(p=0.4, inplace=False)
  )
  (disease_neighbor_encoder): NeighborEmbedding(
    (shutcut): Linear(in_features=313, out_features=32, bias=True)
    (bgnn): BGCNA(313, 32)
    (dropout): Dropout(p=0.4, inplace=False)
  )
  (interaction_encoder): InteractionEmbedding(
    (drug_project): Linear(in_features=593, out_features=64, bias=False)
    (disease_project): Linear(in_features=313, out_features=64, bias=False)
    (dropout): Dropout(p=0.4, inplace=False)
  )
  (decoder): InteractionDecoder(
    (decoder): Sequential(
      (0): Linear(in_features=128, out_features=64, bias=True)
      (1): ReLU(inplace=True)
      (2): Dropout(p=0.4, inplace=False)
      (3): Linear(in_features=64, out_features=32, bias=True)
      (4): ReLU(inplace=True)
      (5): Dropout(p=0.4, inplace=False)
      (6): Linear(in_features=32, out_features=1, bias=True)
      (7): Sigmoid()
    )
  )
)
[09/16 01:30:38][INFO] WBNCF:  158: begin train fold 0/10
[09/16 01:32:04][INFO] WBNCF:  160: end train fold 0/10
[09/16 01:32:05][INFO] WBNCF:   77: eval time cost: 0.9545223712921143
[09/16 01:32:05][INFO] WBNCF:   85: WBNCF(
  (drug_neighbor_encoder): NeighborEmbedding(
    (shutcut): Linear(in_features=593, out_features=32, bias=True)
    (bgnn): BGCNA(593, 32)
    (dropout): Dropout(p=0.4, inplace=False)
  )
  (disease_neighbor_encoder): NeighborEmbedding(
    (shutcut): Linear(in_features=313, out_features=32, bias=True)
    (bgnn): BGCNA(313, 32)
    (dropout): Dropout(p=0.4, inplace=False)
  )
  (interaction_encoder): InteractionEmbedding(
    (drug_project): Linear(in_features=593, out_features=64, bias=False)
    (disease_project): Linear(in_features=313, out_features=64, bias=False)
    (dropout): Dropout(p=0.4, inplace=False)
  )
  (decoder): InteractionDecoder(
    (decoder): Sequential(
      (0): Linear(in_features=128, out_features=64, bias=True)
      (1): ReLU(inplace=True)
      (2): Dropout(p=0.4, inplace=False)
      (3): Linear(in_features=64, out_features=32, bias=True)
      (4): ReLU(inplace=True)
      (5): Dropout(p=0.4, inplace=False)
      (6): Linear(in_features=32, out_features=1, bias=True)
      (7): Sigmoid()
    )
  )
)
[09/16 01:32:05][INFO] WBNCF:   86: save time cost: 0.0020017623901367188
[09/16 01:32:05][INFO] WBNCF:  170: 0/10 folds: {'aupr': 0.29696083929072503, 'auroc': 0.8981908249218723, 'lagcn_aupr': 0.3042509746352928, 'lagcn_auc': 0.8981480354280795, 'lagcn_f1_score': 0.3767313, 'lagcn_accuracy': 0.98787844, 'lagcn_recall': 0.35051546, 'lagcn_specificity': 0.9946102, 'lagcn_precision': 0.4071856}
[09/16 01:32:05][INFO] WBNCF:  171: 0/10 folds time cost: 87.86891102790833
[09/16 01:32:05][INFO] WBNCF:  158: begin train fold 1/10
[09/16 01:33:28][INFO] WBNCF:  160: end train fold 1/10
[09/16 01:33:29][INFO] WBNCF:   77: eval time cost: 0.8127598762512207
[09/16 01:33:29][INFO] WBNCF:   85: WBNCF(
  (drug_neighbor_encoder): NeighborEmbedding(
    (shutcut): Linear(in_features=593, out_features=32, bias=True)
    (bgnn): BGCNA(593, 32)
    (dropout): Dropout(p=0.4, inplace=False)
  )
  (disease_neighbor_encoder): NeighborEmbedding(
    (shutcut): Linear(in_features=313, out_features=32, bias=True)
    (bgnn): BGCNA(313, 32)
    (dropout): Dropout(p=0.4, inplace=False)
  )
  (interaction_encoder): InteractionEmbedding(
    (drug_project): Linear(in_features=593, out_features=64, bias=False)
    (disease_project): Linear(in_features=313, out_features=64, bias=False)
    (dropout): Dropout(p=0.4, inplace=False)
  )
  (decoder): InteractionDecoder(
    (decoder): Sequential(
      (0): Linear(in_features=128, out_features=64, bias=True)
      (1): ReLU(inplace=True)
      (2): Dropout(p=0.4, inplace=False)
      (3): Linear(in_features=64, out_features=32, bias=True)
      (4): ReLU(inplace=True)
      (5): Dropout(p=0.4, inplace=False)
      (6): Linear(in_features=32, out_features=1, bias=True)
      (7): Sigmoid()
    )
  )
)
[09/16 01:33:29][INFO] WBNCF:   86: save time cost: 0.0010008811950683594
[09/16 01:33:29][INFO] WBNCF:  170: 1/10 folds: {'aupr': 0.3882819386284503, 'auroc': 0.9043038206293328, 'lagcn_aupr': 0.3856670359697284, 'lagcn_auc': 0.9042636972078568, 'lagcn_f1_score': 0.45083934, 'lagcn_accuracy': 0.987663, 'lagcn_recall': 0.48453608, 'lagcn_specificity': 0.9929769, 'lagcn_precision': 0.42152467}
…
