…
 'global_test_all_zero': False,
 'gpus': 1,
 'hidden_dims': [64, 32],
 'lamda': 0.9,
 'log_dir': 'eval2-2\\global-10-fold\\Fdataset\\WBNCF\\2023-09-16_15-44-17',
 'loss_fn': 'focal',
 'lr': 0.0005,
 'model': 'NNCFDR',
 'n_disease': 313,
 'n_drug': 593,
 'n_splits': 10,
 'neighbor_embedding_dim': 32,
 'pos_weight': 95.02121055354371,
 'profiler': False,
 'seed': 666,
 'separate': False,
 'size_u': 593,
 'size_v': 313,
 'split_mode': 'global',
 'time_stamp': '2023-09-16_15-44-17',
 'train_fill_unknown': False}
[09/16 15:44:19][INFO] WBNCF:  157: WBNCF(
  (drug_neighbor_encoder): NeighborEmbedding(
    (shutcut): Linear(in_features=593, out_features=32, bias=True)
    (bgnn): BGCNA(593, 32)
    (dropout): Dropout(p=0.4, inplace=False)
  )
  (disease_neighbor_encoder): NeighborEmbedding(
    (shutcut): Linear(in_features=313, out_features=32, bias=True)
    (bgnn): BGCNA(313, 32)
    (dropout): Dropout(p=0.4, inplace=False)
  )
  (interaction_encoder): InteractionEmbedding(
    (drug_project): Linear(in_features=593, out_features=64, bias=False)
    (disease_project): Linear(in_features=313, out_features=64, bias=False)
    (dropout): Dropout(p=0.4, inplace=False)
  )
  (decoder): InteractionDecoder(
    (decoder): Sequential(
      (0): Linear(in_features=128, out_features=64, bias=True)
      (1): ReLU(inplace=True)
      (2): Dropout(p=0.4, inplace=False)
      (3): Linear(in_features=64, out_features=32, bias=True)
      (4): ReLU(inplace=True)
      (5): Dropout(p=0.4, inplace=False)
      (6): Linear(in_features=32, out_features=1, bias=True)
      (7): Sigmoid()
    )
  )
)
[09/16 15:44:19][INFO] WBNCF:  158: begin train fold 0/10
[09/16 15:45:25][INFO] WBNCF:  160: end train fold 0/10
[09/16 15:45:26][INFO] WBNCF:   77: eval time cost: 0.8266205787658691
[09/16 15:45:26][INFO] WBNCF:   85: WBNCF(
  (drug_neighbor_encoder): NeighborEmbedding(
    (shutcut): Linear(in_features=593, out_features=32, bias=True)
    (bgnn): BGCNA(593, 32)
    (dropout): Dropout(p=0.4, inplace=False)
  )
  (disease_neighbor_encoder): NeighborEmbedding(
    (shutcut): Linear(in_features=313, out_features=32, bias=True)
    (bgnn): BGCNA(313, 32)
    (dropout): Dropout(p=0.4, inplace=False)
  )
  (interaction_encoder): InteractionEmbedding(
    (drug_project): Linear(in_features=593, out_features=64, bias=False)
    (disease_project): Linear(in_features=313, out_features=64, bias=False)
    (dropout): Dropout(p=0.4, inplace=False)
  )
  (decoder): InteractionDecoder(
    (decoder): Sequential(
      (0): Linear(in_features=128, out_features=64, bias=True)
      (1): ReLU(inplace=True)
      (2): Dropout(p=0.4, inplace=False)
      (3): Linear(in_features=64, out_features=32, bias=True)
      (4): ReLU(inplace=True)
      (5): Dropout(p=0.4, inplace=False)
      (6): Linear(in_features=32, out_features=1, bias=True)
      (7): Sigmoid()
    )
  )
)
[09/16 15:45:26][INFO] WBNCF:   86: save time cost: 0.003869295120239258
[09/16 15:45:26][INFO] WBNCF:  170: 0/10 folds: {'aupr': 0.4512189948558846, 'auroc': 0.866718845414706, 'lagcn_aupr': 0.4553266282672531, 'lagcn_auc': 0.8667119780886277, 'lagcn_f1_score': 0.49673203, 'lagcn_accuracy': 0.99170345, 'lagcn_recall': 0.39175257, 'lagcn_specificity': 0.9980401, 'lagcn_precision': 0.6785714}
[09/16 15:45:26][INFO] WBNCF:  171: 0/10 folds time cost: 68.32052636146545
[09/16 15:45:26][INFO] WBNCF:  158: begin train fold 1/10
[09/16 15:46:33][INFO] WBNCF:  160: end train fold 1/10
[09/16 15:46:34][INFO] WBNCF:   77: eval time cost: 0.781519889831543
[09/16 15:46:34][INFO] WBNCF:   85: WBNCF(
  (drug_neighbor_encoder): NeighborEmbedding(
    (shutcut): Linear(in_features=593, out_features=32, bias=True)
    (bgnn): BGCNA(593, 32)
    (dropout): Dropout(p=0.4, inplace=False)
  )
  (disease_neighbor_encoder): NeighborEmbedding(
    (shutcut): Linear(in_features=313, out_features=32, bias=True)
    (bgnn): BGCNA(313, 32)
    (dropout): Dropout(p=0.4, inplace=False)
  )
  (interaction_encoder): InteractionEmbedding(
    (drug_project): Linear(in_features=593, out_features=64, bias=False)
    (disease_project): Linear(in_features=313, out_features=64, bias=False)
    (dropout): Dropout(p=0.4, inplace=False)
  )
  (decoder): InteractionDecoder(
    (decoder): Sequential(
      (0): Linear(in_features=128, out_features=64, bias=True)
      (1): ReLU(inplace=True)
      (2): Dropout(p=0.4, inplace=False)
      (3): Linear(in_features=64, out_features=32, bias=True)
      (4): ReLU(inplace=True)
      (5): Dropout(p=0.4, inplace=False)
      (6): Linear(in_features=32, out_features=1, bias=True)
      (7): Sigmoid()
    )
  )
)
[09/16 15:46:34][INFO] WBNCF:   86: save time cost: 0.002614259719848633
[09/16 15:46:34][INFO] WBNCF:  170: 1/10 folds: {'aupr': 0.5578233083141186, 'auroc': 0.898085588113797, 'lagcn_aupr': 0.5551411227337899, 'lagcn_auc': 0.8980907900123523, 'lagcn_f1_score': 0.5751634, 'lagcn_accuracy': 0.99299645, 'lagcn_recall': 0.45360824, 'lagcn_specificity': 0.9986934, 'lagcn_precision': 0.78571427}
[09/16 15:46:34][INFO] WBNCF:  171: 1/10 folds time cost: 68.20382237434387
[09/16 15:46:34][INFO] WBNCF:  158: begin train fold 2/10
[09/16 15:47:40][INFO] WBNCF:  160: end train fold 2/10
[09/16 15:47:41][INFO] WBNCF:   77: eval time cost: 0.8105542659759521
[09/16 15:47:41][INFO] WBNCF:   85: WBNCF(
  (drug_neighbor_encoder): NeighborEmbedding(
    (shutcut): Linear(in_features=593, out_features=32, bias=True)
    (bgnn): BGCNA(593, 32)
    (dropout): Dropout(p=0.4, inplace=False)
  )
  (disease_neighbor_encoder): NeighborEmbedding(
    (shutcut): Linear(in_features=313, out_features=32, bias=True)
    (bgnn): BGCNA(313, 32)
    (dropout): Dropout(p=0.4, inplace=False)
  )
  (interaction_encoder): InteractionEmbedding(
    (drug_project): Linear(in_features=593, out_features=64, bias=False)
    (disease_project): Linear(in_features=313, out_features=64, bias=False)
    (dropout): Dropout(p=0.4, inplace=False)
  )
  (decoder): InteractionDecoder(
    (decoder): Sequential(
      (0): Linear(in_features=128, out_features=64, bias=True)
      (1): ReLU(inplace=True)
      (2): Dropout(p=0.4, inplace=False)
      (3): Linear(in_features=64, out_features=32, bias=True)
      (4): ReLU(inplace=True)
      (5): Dropout(p=0.4, inplace=False)
      (6): Linear(in_features=32, out_features=1, bias=True)
      (7): Sigmoid()
    )
  )
)
[09/16 15:47:41][INFO] WBNCF:   86: save time cost: 0.0030145645141601562
[09/16 15:47:41][INFO] WBNCF:  170: 2/10 folds: {'aupr': 0.5246336708300974, 'auroc': 0.9059730167211465, 'lagcn_aupr': 0.521754275592377, 'lagcn_auc': 0.9059637646163217, 'lagcn_f1_score': 0.53185594, 'lagcn_accuracy': 0.9908954, 'lagcn_recall': 0.49484536, 'lagcn_specificity': 0.9961346, 'lagcn_precision': 0.5748503}
[09/16 15:47:41][INFO] WBNCF:  171: 2/10 folds time cost: 67.48759269714355
[09/16 15:47:41][INFO] WBNCF:  158: begin train fold 3/10
[09/16 15:48:53][INFO] WBNCF:  160: end train fold 3/10
[09/16 15:48:54][INFO] WBNCF:   77: eval time cost: 0.9111535549163818
[09/16 15:48:54][INFO] WBNCF:   85: WBNCF(
  (drug_neighbor_encoder): NeighborEmbedding(
    (shutcut): Linear(in_features=593, out_features=32, bias=True)
    (bgnn): BGCNA(593, 32)
    (dropout): Dropout(p=0.4, inplace=False)
  )
  (disease_neighbor_encoder): NeighborEmbedding(
    (shutcut): Linear(in_features=313, out_features=32, bias=True)
    (bgnn): BGCNA(313, 32)
    (dropout): Dropout(p=0.4, inplace=False)
  )
  (interaction_encoder): InteractionEmbedding(
    (drug_project): Linear(in_features=593, out_features=64, bias=False)
    (disease_project): Linear(in_features=313, out_features=64, bias=False)
    (dropout): Dropout(p=0.4, inplace=False)
  )
  (decoder): InteractionDecoder(
    (decoder): Sequential(
      (0): Linear(in_features=128, out_features=64, bias=True)
      (1): ReLU(inplace=True)
      (2): Dropout(p=0.4, inplace=False)
      (3): Linear(in_features=64, out_features=32, bias=True)
      (4): ReLU(inplace=True)
      (5): Dropout(p=0.4, inplace=False)
      (6): Linear(in_features=32, out_features=1, bias=True)
      (7): Sigmoid()
    )
  )
)
[09/16 15:48:54][INFO] WBNCF:   86: save time cost: 0.003000974655151367
[09/16 15:48:54][INFO] WBNCF:  170: 3/10 folds: {'aupr': 0.46343573284374034, 'auroc': 0.9065855407466918, 'lagcn_aupr': 0.45948702596920254, 'lagcn_auc': 0.9065759544445068, 'lagcn_f1_score': 0.4918033, 'lagcn_accuracy': 0.99164915, 'lagcn_recall': 0.38860103, 'lagcn_specificity': 0.9979856, 'lagcn_precision': 0.66964287}
[09/16 15:48:54][INFO] WBNCF:  171: 3/10 folds time cost: 72.31865167617798
[09/16 15:48:54][INFO] WBNCF:  158: begin train fold 4/10
[09/16 15:50:07][INFO] WBNCF:  160: end train fold 4/10
[09/16 15:50:08][INFO] WBNCF:   77: eval time cost: 0.7813067436218262
[09/16 15:50:08][INFO] WBNCF:   85: WBNCF(
  (drug_neighbor_encoder): NeighborEmbedding(
    (shutcut): Linear(in_features=593, out_features=32, bias=True)
    (bgnn): BGCNA(593, 32)
    (dropout): Dropout(p=0.4, inplace=False)
  )
  (disease_neighbor_encoder): NeighborEmbedding(
    (shutcut): Linear(in_features=313, out_features=32, bias=True)
    (bgnn): BGCNA(313, 32)
    (dropout): Dropout(p=0.4, inplace=False)
  )
  (interaction_encoder): InteractionEmbedding(
    (drug_project): Linear(in_features=593, out_features=64, bias=False)
    (disease_project): Linear(in_features=313, out_features=64, bias=False)
    (dropout): Dropout(p=0.4, inplace=False)
  )
  (decoder): InteractionDecoder(
    (decoder): Sequential(
      (0): Linear(in_features=128, out_features=64, bias=True)
      (1): ReLU(inplace=True)
      (2): Dropout(p=0.4, inplace=False)
      (3): Linear(in_features=64, out_features=32, bias=True)
      (4): ReLU(inplace=True)
      (5): Dropout(p=0.4, inplace=False)
      (6): Linear(in_features=32, out_features=1, bias=True)
      (7): Sigmoid()
    )
  )
)
[09/16 15:50:08][INFO] WBNCF:   86: save time cost: 0.0033719539642333984
[09/16 15:50:08][INFO] WBNCF:  170: 4/10 folds: {'aupr': 0.4129066776194516, 'auroc': 0.846412887472694, 'lagcn_aupr': 0.40722090814168876, 'lagcn_auc': 0.8463822789362581, 'lagcn_f1_score': 0.45454547, 'lagcn_accuracy': 0.99159527, 'lagcn_recall': 0.33678755, 'lagcn_specificity': 0.9984756, 'lagcn_precision': 0.6989247}
[09/16 15:50:08][INFO] WBNCF:  171: 4/10 folds time cost: 74.49570083618164
[09/16 15:50:08][INFO] WBNCF:  158: begin train fold 5/10
[09/16 15:51:16][INFO] WBNCF:  160: end train fold 5/10
[09/16 15:51:16][INFO] WBNCF:   77: eval time cost: 0.7793340682983398
[09/16 15:51:16][INFO] WBNCF:   85: WBNCF(
  (drug_neighbor_encoder): NeighborEmbedding(
    (shutcut): Linear(in_features=593, out_features=32, bias=True)
    (bgnn): BGCNA(593, 32)
    (dropout): Dropout(p=0.4, inplace=False)
  )
  (disease_neighbor_encoder): NeighborEmbedding(
    (shutcut): Linear(in_features=313, out_features=32, bias=True)
    (bgnn): BGCNA(313, 32)
    (dropout): Dropout(p=0.4, inplace=False)
  )
  (interaction_encoder): InteractionEmbedding(
    (drug_project): Linear(in_features=593, out_features=64, bias=False)
    (disease_project): Linear(in_features=313, out_features=64, bias=False)
    (dropout): Dropout(p=0.4, inplace=False)
  )
  (decoder): InteractionDecoder(
    (decoder): Sequential(
      (0): Linear(in_features=128, out_features=64, bias=True)
      (1): ReLU(inplace=True)
      (2): Dropout(p=0.4, inplace=False)
      (3): Linear(in_features=64, out_features=32, bias=True)
      (4): ReLU(inplace=True)
      (5): Dropout(p=0.4, inplace=False)
      (6): Linear(in_features=32, out_features=1, bias=True)
      (7): Sigmoid()
    )
  )
)
[09/16 15:51:16][INFO] WBNCF:   86: save time cost: 0.003258228302001953
[09/16 15:51:16][INFO] WBNCF:  170: 5/10 folds: {'aupr': 0.47015368290545967, 'auroc': 0.8755455534292574, 'lagcn_aupr': 0.46468341924752654, 'lagcn_auc': 0.8755346902708553, 'lagcn_f1_score': 0.49707603, 'lagcn_accuracy': 0.99073327, 'lagcn_recall': 0.44041452, 'lagcn_specificity': 0.9965157, 'lagcn_precision': 0.5704698}
[09/16 15:51:16][INFO] WBNCF:  171: 5/10 folds time cost: 68.30229234695435
[09/16 15:51:16][INFO] WBNCF:  158: begin train fold 6/10
[09/16 15:52:27][INFO] WBNCF:  160: end train fold 6/10
[09/16 15:52:28][INFO] WBNCF:   77: eval time cost: 0.7658677101135254
[09/16 15:52:28][INFO] WBNCF:   85: WBNCF(
  (drug_neighbor_encoder): NeighborEmbedding(
    (shutcut): Linear(in_features=593, out_features=32, bias=True)
    (bgnn): BGCNA(593, 32)
    (dropout): Dropout(p=0.4, inplace=False)
  )
  (disease_neighbor_encoder): NeighborEmbedding(
    (shutcut): Linear(in_features=313, out_features=32, bias=True)
    (bgnn): BGCNA(313, 32)
    (dropout): Dropout(p=0.4, inplace=False)
  )
  (interaction_encoder): InteractionEmbedding(
    (drug_project): Linear(in_features=593, out_features=64, bias=False)
    (disease_project): Linear(in_features=313, out_features=64, bias=False)
    (dropout): Dropout(p=0.4, inplace=False)
  )
  (decoder): InteractionDecoder(
    (decoder): Sequential(
      (0): Linear(in_features=128, out_features=64, bias=True)
      (1): ReLU(inplace=True)
      (2): Dropout(p=0.4, inplace=False)
      (3): Linear(in_features=64, out_features=32, bias=True)
      (4): ReLU(inplace=True)
      (5): Dropout(p=0.4, inplace=False)
      (6): Linear(in_features=32, out_features=1, bias=True)
      (7): Sigmoid()
    )
  )
)
[09/16 15:52:28][INFO] WBNCF:   86: save time cost: 0.002967357635498047
[09/16 15:52:28][INFO] WBNCF:  170: 6/10 folds: {'aupr': 0.38968221111797446, 'auroc': 0.8522750449880403, 'lagcn_aupr': 0.3920804875766394, 'lagcn_auc': 0.8522718008036008, 'lagcn_f1_score': 0.4502924, 'lagcn_accuracy': 0.98987067, 'lagcn_recall': 0.39896372, 'lagcn_specificity': 0.9960799, 'lagcn_precision': 0.5167785}
[09/16 15:52:28][INFO] WBNCF:  171: 6/10 folds time cost: 71.10893273353577
[09/16 15:52:28][INFO] WBNCF:  158: begin train fold 7/10
[09/16 15:53:38][INFO] WBNCF:  160: end train fold 7/10
[09/16 15:53:39][INFO] WBNCF:   77: eval time cost: 0.778266191482544
[09/16 15:53:39][INFO] WBNCF:   85: WBNCF(
  (drug_neighbor_encoder): NeighborEmbedding(
    (shutcut): Linear(in_features=593, out_features=32, bias=True)
    (bgnn): BGCNA(593, 32)
    (dropout): Dropout(p=0.4, inplace=False)
  )
  (disease_neighbor_encoder): NeighborEmbedding(
    (shutcut): Linear(in_features=313, out_features=32, bias=True)
    (bgnn): BGCNA(313, 32)
    (dropout): Dropout(p=0.4, inplace=False)
  )
  (interaction_encoder): InteractionEmbedding(
    (drug_project): Linear(in_features=593, out_features=64, bias=False)
    (disease_project): Linear(in_features=313, out_features=64, bias=False)
    (dropout): Dropout(p=0.4, inplace=False)
  )
  (decoder): InteractionDecoder(
    (decoder): Sequential(
      (0): Linear(in_features=128, out_features=64, bias=True)
      (1): ReLU(inplace=True)
      (2): Dropout(p=0.4, inplace=False)
      (3): Linear(in_features=64, out_features=32, bias=True)
      (4): ReLU(inplace=True)
      (5): Dropout(p=0.4, inplace=False)
      (6): Linear(in_features=32, out_features=1, bias=True)
      (7): Sigmoid()
    )
  )
)
[09/16 15:53:39][INFO] WBNCF:   86: save time cost: 0.002463817596435547
[09/16 15:53:39][INFO] WBNCF:  170: 7/10 folds: {'aupr': 0.5141121130560719, 'auroc': 0.882489461415791, 'lagcn_aupr': 0.5118312167867993, 'lagcn_auc': 0.8824694333145044, 'lagcn_f1_score': 0.55727553, 'lagcn_accuracy': 0.99229527, 'lagcn_recall': 0.46632123, 'lagcn_specificity': 0.99782217, 'lagcn_precision': 0.6923077}
[09/16 15:53:39][INFO] WBNCF:  171: 7/10 folds time cost: 71.34382772445679
[09/16 15:53:39][INFO] WBNCF:  158: begin train fold 8/10
[09/16 15:54:45][INFO] WBNCF:  160: end train fold 8/10
[09/16 15:54:46][INFO] WBNCF:   77: eval time cost: 0.8016767501831055
[09/16 15:54:46][INFO] WBNCF:   85: WBNCF(
  (drug_neighbor_encoder): NeighborEmbedding(
    (shutcut): Linear(in_features=593, out_features=32, bias=True)
    (bgnn): BGCNA(593, 32)
    (dropout): Dropout(p=0.4, inplace=False)
  )
  (disease_neighbor_encoder): NeighborEmbedding(
    (shutcut): Linear(in_features=313, out_features=32, bias=True)
    (bgnn): BGCNA(313, 32)
    (dropout): Dropout(p=0.4, inplace=False)
  )
  (interaction_encoder): InteractionEmbedding(
    (drug_project): Linear(in_features=593, out_features=64, bias=False)
    (disease_project): Linear(in_features=313, out_features=64, bias=False)
    (dropout): Dropout(p=0.4, inplace=False)
  )
  (decoder): InteractionDecoder(
    (decoder): Sequential(
      (0): Linear(in_features=128, out_features=64, bias=True)
      (1): ReLU(inplace=True)
      (2): Dropout(p=0.4, inplace=False)
      (3): Linear(in_features=64, out_features=32, bias=True)
      (4): ReLU(inplace=True)
      (5): Dropout(p=0.4, inplace=False)
      (6): Linear(in_features=32, out_features=1, bias=True)
      (7): Sigmoid()
    )
  )
)
[09/16 15:54:46][INFO] WBNCF:   86: save time cost: 0.003000497817993164
[09/16 15:54:46][INFO] WBNCF:  170: 8/10 folds: {'aupr': 0.4901923529893028, 'auroc': 0.8831332156596464, 'lagcn_aupr': 0.4844477861718733, 'lagcn_auc': 0.8831099422496097, 'lagcn_f1_score': 0.50491804, 'lagcn_accuracy': 0.9918642, 'lagcn_recall': 0.39896372, 'lagcn_specificity': 0.9980944, 'lagcn_precision': 0.6875}
[09/16 15:54:46][INFO] WBNCF:  171: 8/10 folds time cost: 67.38725161552429
[09/16 15:54:46][INFO] WBNCF:  158: begin train fold 9/10
[09/16 15:56:00][INFO] WBNCF:  160: end train fold 9/10
[09/16 15:56:00][INFO] WBNCF:   77: eval time cost: 0.8413636684417725
[09/16 15:56:00][INFO] WBNCF:   85: WBNCF(
  (drug_neighbor_encoder): NeighborEmbedding(
    (shutcut): Linear(in_features=593, out_features=32, bias=True)
    (bgnn): BGCNA(593, 32)
    (dropout): Dropout(p=0.4, inplace=False)
  )
  (disease_neighbor_encoder): NeighborEmbedding(
    (shutcut): Linear(in_features=313, out_features=32, bias=True)
    (bgnn): BGCNA(313, 32)
    (dropout): Dropout(p=0.4, inplace=False)
  )
  (interaction_encoder): InteractionEmbedding(
    (drug_project): Linear(in_features=593, out_features=64, bias=False)
    (disease_project): Linear(in_features=313, out_features=64, bias=False)
    (dropout): Dropout(p=0.4, inplace=False)
  )
  (decoder): InteractionDecoder(
    (decoder): Sequential(
      (0): Linear(in_features=128, out_features=64, bias=True)
      (1): ReLU(inplace=True)
      (2): Dropout(p=0.4, inplace=False)
      (3): Linear(in_features=64, out_features=32, bias=True)
      (4): ReLU(inplace=True)
      (5): Dropout(p=0.4, inplace=False)
      (6): Linear(in_features=32, out_features=1, bias=True)
      (7): Sigmoid()
    )
  )
)
[09/16 15:56:00][INFO] WBNCF:   86: save time cost: 0.0025899410247802734
[09/16 15:56:00][INFO] WBNCF:  170: 9/10 folds: {'aupr': 0.4061497818125016, 'auroc': 0.8743498632233806, 'lagcn_aupr': 0.3977925856289018, 'lagcn_auc': 0.8743313897295917, 'lagcn_f1_score': 0.4520124, 'lagcn_accuracy': 0.9904634, 'lagcn_recall': 0.37823835, 'lagcn_specificity': 0.9968966, 'lagcn_precision': 0.56153846}
…
